<?xml version="1.0" ?>
<net name="driver-action-recognition-adas-0002-decoder" version="10">
	<layers>
		<layer id="0" name="0" type="Parameter" version="opset1">
			<data element_type="f32" shape="1, 16, 512"/>
			<output>
				<port id="0" names="0" precision="FP32">
					<dim>1</dim>
					<dim>16</dim>
					<dim>512</dim>
				</port>
			</output>
		</layer>
		<layer id="1" name="3631150" type="Const" version="opset1">
			<data element_type="f32" offset="0" shape="1, 16, 512" size="32768"/>
			<output>
				<port id="0" names="363" precision="FP32">
					<dim>1</dim>
					<dim>16</dim>
					<dim>512</dim>
				</port>
			</output>
		</layer>
		<layer id="2" name="364" type="Add" version="opset1">
			<data auto_broadcast="numpy"/>
			<input>
				<port id="0" precision="FP32">
					<dim>1</dim>
					<dim>16</dim>
					<dim>512</dim>
				</port>
				<port id="1" precision="FP32">
					<dim>1</dim>
					<dim>16</dim>
					<dim>512</dim>
				</port>
			</input>
			<output>
				<port id="2" names="364" precision="FP32">
					<dim>1</dim>
					<dim>16</dim>
					<dim>512</dim>
				</port>
			</output>
		</layer>
		<layer id="3" name="377" type="Const" version="opset1">
			<data element_type="i64" offset="32768" shape="3" size="24"/>
			<output>
				<port id="0" names="377" precision="I64">
					<dim>3</dim>
				</port>
			</output>
		</layer>
		<layer id="4" name="378" type="Tile" version="opset1">
			<input>
				<port id="0" precision="FP32">
					<dim>1</dim>
					<dim>16</dim>
					<dim>512</dim>
				</port>
				<port id="1" precision="I64">
					<dim>3</dim>
				</port>
			</input>
			<output>
				<port id="2" names="378" precision="FP32">
					<dim>8</dim>
					<dim>16</dim>
					<dim>512</dim>
				</port>
			</output>
		</layer>
		<layer id="5" name="381/Unsqueeze" type="Const" version="opset1">
			<data element_type="i64" offset="32792" shape="1" size="8"/>
			<output>
				<port id="0" names="381" precision="I64">
					<dim>1</dim>
				</port>
			</output>
		</layer>
		<layer id="6" name="382/Unsqueeze" type="Const" version="opset1">
			<data element_type="i64" offset="32800" shape="1" size="8"/>
			<output>
				<port id="0" names="382" precision="I64">
					<dim>1</dim>
				</port>
			</output>
		</layer>
		<layer id="7" name="374" type="ShapeOf" version="opset3">
			<data output_type="i64"/>
			<input>
				<port id="0" precision="FP32">
					<dim>1</dim>
					<dim>16</dim>
					<dim>512</dim>
				</port>
			</input>
			<output>
				<port id="1" names="374" precision="I64">
					<dim>3</dim>
				</port>
			</output>
		</layer>
		<layer id="8" name="375/Concat585820959" type="Const" version="opset1">
			<data element_type="i64" offset="32808" shape="1" size="8"/>
			<output>
				<port id="0" precision="I64">
					<dim>1</dim>
				</port>
			</output>
		</layer>
		<layer id="9" name="375/Concat5848585920884" type="Const" version="opset1">
			<data element_type="i64" offset="32816" shape="1" size="8"/>
			<output>
				<port id="0" precision="I64">
					<dim>1</dim>
				</port>
			</output>
		</layer>
		<layer id="10" name="375/Strides586020713" type="Const" version="opset1">
			<data element_type="i64" offset="32824" shape="1" size="8"/>
			<output>
				<port id="0" precision="I64">
					<dim>1</dim>
				</port>
			</output>
		</layer>
		<layer id="11" name="375" type="StridedSlice" version="opset1">
			<data begin_mask="0" ellipsis_mask="0" end_mask="0" new_axis_mask="0" shrink_axis_mask="0"/>
			<input>
				<port id="0" precision="I64">
					<dim>3</dim>
				</port>
				<port id="1" precision="I64">
					<dim>1</dim>
				</port>
				<port id="2" precision="I64">
					<dim>1</dim>
				</port>
				<port id="3" precision="I64">
					<dim>1</dim>
				</port>
			</input>
			<output>
				<port id="4" names="375" precision="I64">
					<dim>1</dim>
				</port>
			</output>
		</layer>
		<layer id="12" name="376/Dims" type="Const" version="opset1">
			<data element_type="i64" offset="32832" shape="1" size="8"/>
			<output>
				<port id="0" precision="I64">
					<dim>1</dim>
				</port>
			</output>
		</layer>
		<layer id="13" name="376" type="Squeeze" version="opset1">
			<input>
				<port id="0" precision="I64">
					<dim>1</dim>
				</port>
				<port id="1" precision="I64">
					<dim>1</dim>
				</port>
			</input>
			<output>
				<port id="2" names="376" precision="I64"/>
			</output>
		</layer>
		<layer id="14" name="383/Dims" type="Const" version="opset1">
			<data element_type="i64" offset="32832" shape="1" size="8"/>
			<output>
				<port id="0" precision="I64">
					<dim>1</dim>
				</port>
			</output>
		</layer>
		<layer id="15" name="383/Unsqueeze" type="Unsqueeze" version="opset1">
			<input>
				<port id="0" precision="I64"/>
				<port id="1" precision="I64">
					<dim>1</dim>
				</port>
			</input>
			<output>
				<port id="2" names="383" precision="I64">
					<dim>1</dim>
				</port>
			</output>
		</layer>
		<layer id="16" name="384" type="Concat" version="opset1">
			<data axis="0"/>
			<input>
				<port id="0" precision="I64">
					<dim>1</dim>
				</port>
				<port id="1" precision="I64">
					<dim>1</dim>
				</port>
				<port id="2" precision="I64">
					<dim>1</dim>
				</port>
			</input>
			<output>
				<port id="3" names="384" precision="I64">
					<dim>3</dim>
				</port>
			</output>
		</layer>
		<layer id="17" name="385" type="Reshape" version="opset1">
			<data special_zero="true"/>
			<input>
				<port id="0" precision="FP32">
					<dim>8</dim>
					<dim>16</dim>
					<dim>512</dim>
				</port>
				<port id="1" precision="I64">
					<dim>3</dim>
				</port>
			</input>
			<output>
				<port id="2" names="385" precision="FP32">
					<dim>8</dim>
					<dim>16</dim>
					<dim>512</dim>
				</port>
			</output>
		</layer>
		<layer id="18" name="316" type="Const" version="opset1">
			<data element_type="f32" offset="32840" shape="8, 512, 64" size="1048576"/>
			<output>
				<port id="0" names="316" precision="FP32">
					<dim>8</dim>
					<dim>512</dim>
					<dim>64</dim>
				</port>
			</output>
		</layer>
		<layer id="19" name="404" type="MatMul" version="opset1">
			<data transpose_a="false" transpose_b="false"/>
			<input>
				<port id="0" precision="FP32">
					<dim>8</dim>
					<dim>16</dim>
					<dim>512</dim>
				</port>
				<port id="1" precision="FP32">
					<dim>8</dim>
					<dim>512</dim>
					<dim>64</dim>
				</port>
			</input>
			<output>
				<port id="2" names="404" precision="FP32">
					<dim>8</dim>
					<dim>16</dim>
					<dim>64</dim>
				</port>
			</output>
		</layer>
		<layer id="20" name="407/Unsqueeze" type="Const" version="opset1">
			<data element_type="i64" offset="32800" shape="1" size="8"/>
			<output>
				<port id="0" names="407" precision="I64">
					<dim>1</dim>
				</port>
			</output>
		</layer>
		<layer id="21" name="365" type="ShapeOf" version="opset3">
			<data output_type="i64"/>
			<input>
				<port id="0" precision="FP32">
					<dim>1</dim>
					<dim>16</dim>
					<dim>512</dim>
				</port>
			</input>
			<output>
				<port id="1" names="365" precision="I64">
					<dim>3</dim>
				</port>
			</output>
		</layer>
		<layer id="22" name="366/Concat603820698" type="Const" version="opset1">
			<data element_type="i64" offset="32824" shape="1" size="8"/>
			<output>
				<port id="0" precision="I64">
					<dim>1</dim>
				</port>
			</output>
		</layer>
		<layer id="23" name="366/Concat6028603920380" type="Const" version="opset1">
			<data element_type="i64" offset="32808" shape="1" size="8"/>
			<output>
				<port id="0" precision="I64">
					<dim>1</dim>
				</port>
			</output>
		</layer>
		<layer id="24" name="366/Strides604020800" type="Const" version="opset1">
			<data element_type="i64" offset="32824" shape="1" size="8"/>
			<output>
				<port id="0" precision="I64">
					<dim>1</dim>
				</port>
			</output>
		</layer>
		<layer id="25" name="366" type="StridedSlice" version="opset1">
			<data begin_mask="0" ellipsis_mask="0" end_mask="0" new_axis_mask="0" shrink_axis_mask="0"/>
			<input>
				<port id="0" precision="I64">
					<dim>3</dim>
				</port>
				<port id="1" precision="I64">
					<dim>1</dim>
				</port>
				<port id="2" precision="I64">
					<dim>1</dim>
				</port>
				<port id="3" precision="I64">
					<dim>1</dim>
				</port>
			</input>
			<output>
				<port id="4" names="366" precision="I64">
					<dim>1</dim>
				</port>
			</output>
		</layer>
		<layer id="26" name="367/Dims" type="Const" version="opset1">
			<data element_type="i64" offset="32832" shape="1" size="8"/>
			<output>
				<port id="0" precision="I64">
					<dim>1</dim>
				</port>
			</output>
		</layer>
		<layer id="27" name="367" type="Squeeze" version="opset1">
			<input>
				<port id="0" precision="I64">
					<dim>1</dim>
				</port>
				<port id="1" precision="I64">
					<dim>1</dim>
				</port>
			</input>
			<output>
				<port id="2" names="367" precision="I64"/>
			</output>
		</layer>
		<layer id="28" name="408/Dims" type="Const" version="opset1">
			<data element_type="i64" offset="32832" shape="1" size="8"/>
			<output>
				<port id="0" precision="I64">
					<dim>1</dim>
				</port>
			</output>
		</layer>
		<layer id="29" name="408/Unsqueeze" type="Unsqueeze" version="opset1">
			<input>
				<port id="0" precision="I64"/>
				<port id="1" precision="I64">
					<dim>1</dim>
				</port>
			</input>
			<output>
				<port id="2" names="408" precision="I64">
					<dim>1</dim>
				</port>
			</output>
		</layer>
		<layer id="30" name="409/Unsqueeze" type="Const" version="opset1">
			<data element_type="i64" offset="1081416" shape="1" size="8"/>
			<output>
				<port id="0" names="409" precision="I64">
					<dim>1</dim>
				</port>
			</output>
		</layer>
		<layer id="31" name="410" type="Concat" version="opset1">
			<data axis="0"/>
			<input>
				<port id="0" precision="I64">
					<dim>1</dim>
				</port>
				<port id="1" precision="I64">
					<dim>1</dim>
				</port>
				<port id="2" precision="I64">
					<dim>1</dim>
				</port>
			</input>
			<output>
				<port id="3" names="410" precision="I64">
					<dim>3</dim>
				</port>
			</output>
		</layer>
		<layer id="32" name="411" type="Reshape" version="opset1">
			<data special_zero="true"/>
			<input>
				<port id="0" precision="FP32">
					<dim>8</dim>
					<dim>16</dim>
					<dim>64</dim>
				</port>
				<port id="1" precision="I64">
					<dim>3</dim>
				</port>
			</input>
			<output>
				<port id="2" names="411" precision="FP32">
					<dim>8</dim>
					<dim>16</dim>
					<dim>64</dim>
				</port>
			</output>
		</layer>
		<layer id="33" name="386" type="Const" version="opset1">
			<data element_type="i64" offset="32768" shape="3" size="24"/>
			<output>
				<port id="0" names="386" precision="I64">
					<dim>3</dim>
				</port>
			</output>
		</layer>
		<layer id="34" name="387" type="Tile" version="opset1">
			<input>
				<port id="0" precision="FP32">
					<dim>1</dim>
					<dim>16</dim>
					<dim>512</dim>
				</port>
				<port id="1" precision="I64">
					<dim>3</dim>
				</port>
			</input>
			<output>
				<port id="2" names="387" precision="FP32">
					<dim>8</dim>
					<dim>16</dim>
					<dim>512</dim>
				</port>
			</output>
		</layer>
		<layer id="35" name="390/Unsqueeze" type="Const" version="opset1">
			<data element_type="i64" offset="32792" shape="1" size="8"/>
			<output>
				<port id="0" names="390" precision="I64">
					<dim>1</dim>
				</port>
			</output>
		</layer>
		<layer id="36" name="391/Unsqueeze" type="Const" version="opset1">
			<data element_type="i64" offset="32800" shape="1" size="8"/>
			<output>
				<port id="0" names="391" precision="I64">
					<dim>1</dim>
				</port>
			</output>
		</layer>
		<layer id="37" name="392/Dims" type="Const" version="opset1">
			<data element_type="i64" offset="32832" shape="1" size="8"/>
			<output>
				<port id="0" precision="I64">
					<dim>1</dim>
				</port>
			</output>
		</layer>
		<layer id="38" name="392/Unsqueeze" type="Unsqueeze" version="opset1">
			<input>
				<port id="0" precision="I64"/>
				<port id="1" precision="I64">
					<dim>1</dim>
				</port>
			</input>
			<output>
				<port id="2" names="392" precision="I64">
					<dim>1</dim>
				</port>
			</output>
		</layer>
		<layer id="39" name="393" type="Concat" version="opset1">
			<data axis="0"/>
			<input>
				<port id="0" precision="I64">
					<dim>1</dim>
				</port>
				<port id="1" precision="I64">
					<dim>1</dim>
				</port>
				<port id="2" precision="I64">
					<dim>1</dim>
				</port>
			</input>
			<output>
				<port id="3" names="393" precision="I64">
					<dim>3</dim>
				</port>
			</output>
		</layer>
		<layer id="40" name="394" type="Reshape" version="opset1">
			<data special_zero="true"/>
			<input>
				<port id="0" precision="FP32">
					<dim>8</dim>
					<dim>16</dim>
					<dim>512</dim>
				</port>
				<port id="1" precision="I64">
					<dim>3</dim>
				</port>
			</input>
			<output>
				<port id="2" names="394" precision="FP32">
					<dim>8</dim>
					<dim>16</dim>
					<dim>512</dim>
				</port>
			</output>
		</layer>
		<layer id="41" name="317" type="Const" version="opset1">
			<data element_type="f32" offset="1081424" shape="8, 512, 64" size="1048576"/>
			<output>
				<port id="0" names="317" precision="FP32">
					<dim>8</dim>
					<dim>512</dim>
					<dim>64</dim>
				</port>
			</output>
		</layer>
		<layer id="42" name="412" type="MatMul" version="opset1">
			<data transpose_a="false" transpose_b="false"/>
			<input>
				<port id="0" precision="FP32">
					<dim>8</dim>
					<dim>16</dim>
					<dim>512</dim>
				</port>
				<port id="1" precision="FP32">
					<dim>8</dim>
					<dim>512</dim>
					<dim>64</dim>
				</port>
			</input>
			<output>
				<port id="2" names="412" precision="FP32">
					<dim>8</dim>
					<dim>16</dim>
					<dim>64</dim>
				</port>
			</output>
		</layer>
		<layer id="43" name="415/Unsqueeze" type="Const" version="opset1">
			<data element_type="i64" offset="32800" shape="1" size="8"/>
			<output>
				<port id="0" names="415" precision="I64">
					<dim>1</dim>
				</port>
			</output>
		</layer>
		<layer id="44" name="368" type="ShapeOf" version="opset3">
			<data output_type="i64"/>
			<input>
				<port id="0" precision="FP32">
					<dim>1</dim>
					<dim>16</dim>
					<dim>512</dim>
				</port>
			</input>
			<output>
				<port id="1" names="368" precision="I64">
					<dim>3</dim>
				</port>
			</output>
		</layer>
		<layer id="45" name="369/Concat643420491" type="Const" version="opset1">
			<data element_type="i64" offset="32824" shape="1" size="8"/>
			<output>
				<port id="0" precision="I64">
					<dim>1</dim>
				</port>
			</output>
		</layer>
		<layer id="46" name="369/Concat6424643520596" type="Const" version="opset1">
			<data element_type="i64" offset="32808" shape="1" size="8"/>
			<output>
				<port id="0" precision="I64">
					<dim>1</dim>
				</port>
			</output>
		</layer>
		<layer id="47" name="369/Strides643620338" type="Const" version="opset1">
			<data element_type="i64" offset="32824" shape="1" size="8"/>
			<output>
				<port id="0" precision="I64">
					<dim>1</dim>
				</port>
			</output>
		</layer>
		<layer id="48" name="369" type="StridedSlice" version="opset1">
			<data begin_mask="0" ellipsis_mask="0" end_mask="0" new_axis_mask="0" shrink_axis_mask="0"/>
			<input>
				<port id="0" precision="I64">
					<dim>3</dim>
				</port>
				<port id="1" precision="I64">
					<dim>1</dim>
				</port>
				<port id="2" precision="I64">
					<dim>1</dim>
				</port>
				<port id="3" precision="I64">
					<dim>1</dim>
				</port>
			</input>
			<output>
				<port id="4" names="369" precision="I64">
					<dim>1</dim>
				</port>
			</output>
		</layer>
		<layer id="49" name="370/Dims" type="Const" version="opset1">
			<data element_type="i64" offset="32832" shape="1" size="8"/>
			<output>
				<port id="0" precision="I64">
					<dim>1</dim>
				</port>
			</output>
		</layer>
		<layer id="50" name="370" type="Squeeze" version="opset1">
			<input>
				<port id="0" precision="I64">
					<dim>1</dim>
				</port>
				<port id="1" precision="I64">
					<dim>1</dim>
				</port>
			</input>
			<output>
				<port id="2" names="370" precision="I64"/>
			</output>
		</layer>
		<layer id="51" name="416/Dims" type="Const" version="opset1">
			<data element_type="i64" offset="32832" shape="1" size="8"/>
			<output>
				<port id="0" precision="I64">
					<dim>1</dim>
				</port>
			</output>
		</layer>
		<layer id="52" name="416/Unsqueeze" type="Unsqueeze" version="opset1">
			<input>
				<port id="0" precision="I64"/>
				<port id="1" precision="I64">
					<dim>1</dim>
				</port>
			</input>
			<output>
				<port id="2" names="416" precision="I64">
					<dim>1</dim>
				</port>
			</output>
		</layer>
		<layer id="53" name="417/Unsqueeze" type="Const" version="opset1">
			<data element_type="i64" offset="1081416" shape="1" size="8"/>
			<output>
				<port id="0" names="417" precision="I64">
					<dim>1</dim>
				</port>
			</output>
		</layer>
		<layer id="54" name="418" type="Concat" version="opset1">
			<data axis="0"/>
			<input>
				<port id="0" precision="I64">
					<dim>1</dim>
				</port>
				<port id="1" precision="I64">
					<dim>1</dim>
				</port>
				<port id="2" precision="I64">
					<dim>1</dim>
				</port>
			</input>
			<output>
				<port id="3" names="418" precision="I64">
					<dim>3</dim>
				</port>
			</output>
		</layer>
		<layer id="55" name="419" type="Reshape" version="opset1">
			<data special_zero="true"/>
			<input>
				<port id="0" precision="FP32">
					<dim>8</dim>
					<dim>16</dim>
					<dim>64</dim>
				</port>
				<port id="1" precision="I64">
					<dim>3</dim>
				</port>
			</input>
			<output>
				<port id="2" names="419" precision="FP32">
					<dim>8</dim>
					<dim>16</dim>
					<dim>64</dim>
				</port>
			</output>
		</layer>
		<layer id="56" name="785" type="Const" version="opset1">
			<data element_type="i64" offset="2130000" shape="3" size="24"/>
			<output>
				<port id="0" precision="I64">
					<dim>3</dim>
				</port>
			</output>
		</layer>
		<layer id="57" name="428" type="Transpose" version="opset1">
			<input>
				<port id="0" precision="FP32">
					<dim>8</dim>
					<dim>16</dim>
					<dim>64</dim>
				</port>
				<port id="1" precision="I64">
					<dim>3</dim>
				</port>
			</input>
			<output>
				<port id="2" precision="FP32">
					<dim>8</dim>
					<dim>64</dim>
					<dim>16</dim>
				</port>
			</output>
		</layer>
		<layer id="58" name="431_copy/const9856" type="Const" version="opset1">
			<data element_type="f32" offset="2130024" shape="1, 64, 1" size="256"/>
			<output>
				<port id="0" precision="FP32">
					<dim>1</dim>
					<dim>64</dim>
					<dim>1</dim>
				</port>
			</output>
		</layer>
		<layer id="59" name="431_copy" type="Multiply" version="opset1">
			<data auto_broadcast="numpy"/>
			<input>
				<port id="0" precision="FP32">
					<dim>8</dim>
					<dim>64</dim>
					<dim>16</dim>
				</port>
				<port id="1" precision="FP32">
					<dim>1</dim>
					<dim>64</dim>
					<dim>1</dim>
				</port>
			</input>
			<output>
				<port id="2" names="428" precision="FP32">
					<dim>8</dim>
					<dim>64</dim>
					<dim>16</dim>
				</port>
			</output>
		</layer>
		<layer id="60" name="429" type="MatMul" version="opset1">
			<data transpose_a="false" transpose_b="false"/>
			<input>
				<port id="0" precision="FP32">
					<dim>8</dim>
					<dim>16</dim>
					<dim>64</dim>
				</port>
				<port id="1" precision="FP32">
					<dim>8</dim>
					<dim>64</dim>
					<dim>16</dim>
				</port>
			</input>
			<output>
				<port id="2" names="431" precision="FP32">
					<dim>8</dim>
					<dim>16</dim>
					<dim>16</dim>
				</port>
			</output>
		</layer>
		<layer id="61" name="432" type="ShapeOf" version="opset3">
			<data output_type="i64"/>
			<input>
				<port id="0" precision="FP32">
					<dim>8</dim>
					<dim>16</dim>
					<dim>16</dim>
				</port>
			</input>
			<output>
				<port id="1" names="432" precision="I64">
					<dim>3</dim>
				</port>
			</output>
		</layer>
		<layer id="62" name="433/Concat625420737" type="Const" version="opset1">
			<data element_type="i64" offset="32832" shape="1" size="8"/>
			<output>
				<port id="0" precision="I64">
					<dim>1</dim>
				</port>
			</output>
		</layer>
		<layer id="63" name="433/Concat6244625520761" type="Const" version="opset1">
			<data element_type="i64" offset="32824" shape="1" size="8"/>
			<output>
				<port id="0" precision="I64">
					<dim>1</dim>
				</port>
			</output>
		</layer>
		<layer id="64" name="433/Strides625620719" type="Const" version="opset1">
			<data element_type="i64" offset="32824" shape="1" size="8"/>
			<output>
				<port id="0" precision="I64">
					<dim>1</dim>
				</port>
			</output>
		</layer>
		<layer id="65" name="433" type="StridedSlice" version="opset1">
			<data begin_mask="0" ellipsis_mask="0" end_mask="0" new_axis_mask="0" shrink_axis_mask="0"/>
			<input>
				<port id="0" precision="I64">
					<dim>3</dim>
				</port>
				<port id="1" precision="I64">
					<dim>1</dim>
				</port>
				<port id="2" precision="I64">
					<dim>1</dim>
				</port>
				<port id="3" precision="I64">
					<dim>1</dim>
				</port>
			</input>
			<output>
				<port id="4" names="433" precision="I64">
					<dim>1</dim>
				</port>
			</output>
		</layer>
		<layer id="66" name="434/Dims" type="Const" version="opset1">
			<data element_type="i64" offset="32832" shape="1" size="8"/>
			<output>
				<port id="0" precision="I64">
					<dim>1</dim>
				</port>
			</output>
		</layer>
		<layer id="67" name="434" type="Squeeze" version="opset1">
			<input>
				<port id="0" precision="I64">
					<dim>1</dim>
				</port>
				<port id="1" precision="I64">
					<dim>1</dim>
				</port>
			</input>
			<output>
				<port id="2" names="434" precision="I64"/>
			</output>
		</layer>
		<layer id="68" name="435" type="ShapeOf" version="opset3">
			<data output_type="i64"/>
			<input>
				<port id="0" precision="FP32">
					<dim>8</dim>
					<dim>16</dim>
					<dim>16</dim>
				</port>
			</input>
			<output>
				<port id="1" names="435" precision="I64">
					<dim>3</dim>
				</port>
			</output>
		</layer>
		<layer id="69" name="436/Concat665020626" type="Const" version="opset1">
			<data element_type="i64" offset="32824" shape="1" size="8"/>
			<output>
				<port id="0" precision="I64">
					<dim>1</dim>
				</port>
			</output>
		</layer>
		<layer id="70" name="436/Concat6640665120707" type="Const" version="opset1">
			<data element_type="i64" offset="32808" shape="1" size="8"/>
			<output>
				<port id="0" precision="I64">
					<dim>1</dim>
				</port>
			</output>
		</layer>
		<layer id="71" name="436/Strides665221001" type="Const" version="opset1">
			<data element_type="i64" offset="32824" shape="1" size="8"/>
			<output>
				<port id="0" precision="I64">
					<dim>1</dim>
				</port>
			</output>
		</layer>
		<layer id="72" name="436" type="StridedSlice" version="opset1">
			<data begin_mask="0" ellipsis_mask="0" end_mask="0" new_axis_mask="0" shrink_axis_mask="0"/>
			<input>
				<port id="0" precision="I64">
					<dim>3</dim>
				</port>
				<port id="1" precision="I64">
					<dim>1</dim>
				</port>
				<port id="2" precision="I64">
					<dim>1</dim>
				</port>
				<port id="3" precision="I64">
					<dim>1</dim>
				</port>
			</input>
			<output>
				<port id="4" names="436" precision="I64">
					<dim>1</dim>
				</port>
			</output>
		</layer>
		<layer id="73" name="437/Dims" type="Const" version="opset1">
			<data element_type="i64" offset="32832" shape="1" size="8"/>
			<output>
				<port id="0" precision="I64">
					<dim>1</dim>
				</port>
			</output>
		</layer>
		<layer id="74" name="437" type="Squeeze" version="opset1">
			<input>
				<port id="0" precision="I64">
					<dim>1</dim>
				</port>
				<port id="1" precision="I64">
					<dim>1</dim>
				</port>
			</input>
			<output>
				<port id="2" names="437" precision="I64"/>
			</output>
		</layer>
		<layer id="75" name="438" type="Multiply" version="opset1">
			<data auto_broadcast="numpy"/>
			<input>
				<port id="0" precision="I64"/>
				<port id="1" precision="I64"/>
			</input>
			<output>
				<port id="2" names="438" precision="I64"/>
			</output>
		</layer>
		<layer id="76" name="440/Dims" type="Const" version="opset1">
			<data element_type="i64" offset="32832" shape="1" size="8"/>
			<output>
				<port id="0" precision="I64">
					<dim>1</dim>
				</port>
			</output>
		</layer>
		<layer id="77" name="440/Unsqueeze" type="Unsqueeze" version="opset1">
			<input>
				<port id="0" precision="I64"/>
				<port id="1" precision="I64">
					<dim>1</dim>
				</port>
			</input>
			<output>
				<port id="2" names="440" precision="I64">
					<dim>1</dim>
				</port>
			</output>
		</layer>
		<layer id="78" name="441/Unsqueeze" type="Const" version="opset1">
			<data element_type="i64" offset="32800" shape="1" size="8"/>
			<output>
				<port id="0" names="441" precision="I64">
					<dim>1</dim>
				</port>
			</output>
		</layer>
		<layer id="79" name="442" type="Concat" version="opset1">
			<data axis="0"/>
			<input>
				<port id="0" precision="I64">
					<dim>1</dim>
				</port>
				<port id="1" precision="I64">
					<dim>1</dim>
				</port>
			</input>
			<output>
				<port id="2" names="442" precision="I64">
					<dim>2</dim>
				</port>
			</output>
		</layer>
		<layer id="80" name="443" type="Reshape" version="opset1">
			<data special_zero="true"/>
			<input>
				<port id="0" precision="FP32">
					<dim>8</dim>
					<dim>16</dim>
					<dim>16</dim>
				</port>
				<port id="1" precision="I64">
					<dim>2</dim>
				</port>
			</input>
			<output>
				<port id="2" names="443" precision="FP32">
					<dim>128</dim>
					<dim>16</dim>
				</port>
			</output>
		</layer>
		<layer id="81" name="444/FlattenONNX_/Reshape/shape" type="Const" version="opset1">
			<data element_type="i64" offset="2130280" shape="2" size="16"/>
			<output>
				<port id="0" precision="I64">
					<dim>2</dim>
				</port>
			</output>
		</layer>
		<layer id="82" name="444/FlattenONNX_/Reshape" type="Reshape" version="opset1">
			<data special_zero="true"/>
			<input>
				<port id="0" precision="FP32">
					<dim>128</dim>
					<dim>16</dim>
				</port>
				<port id="1" precision="I64">
					<dim>2</dim>
				</port>
			</input>
			<output>
				<port id="2" precision="FP32">
					<dim>128</dim>
					<dim>16</dim>
				</port>
			</output>
		</layer>
		<layer id="83" name="444/Softmax_" type="SoftMax" version="opset1">
			<data axis="1"/>
			<input>
				<port id="0" precision="FP32">
					<dim>128</dim>
					<dim>16</dim>
				</port>
			</input>
			<output>
				<port id="1" precision="FP32">
					<dim>128</dim>
					<dim>16</dim>
				</port>
			</output>
		</layer>
		<layer id="84" name="444/ShapeOf_" type="ShapeOf" version="opset3">
			<data output_type="i64"/>
			<input>
				<port id="0" precision="FP32">
					<dim>128</dim>
					<dim>16</dim>
				</port>
			</input>
			<output>
				<port id="1" precision="I64">
					<dim>2</dim>
				</port>
			</output>
		</layer>
		<layer id="85" name="444" type="Reshape" version="opset1">
			<data special_zero="true"/>
			<input>
				<port id="0" precision="FP32">
					<dim>128</dim>
					<dim>16</dim>
				</port>
				<port id="1" precision="I64">
					<dim>2</dim>
				</port>
			</input>
			<output>
				<port id="2" names="444" precision="FP32">
					<dim>128</dim>
					<dim>16</dim>
				</port>
			</output>
		</layer>
		<layer id="86" name="446/Dims" type="Const" version="opset1">
			<data element_type="i64" offset="32832" shape="1" size="8"/>
			<output>
				<port id="0" precision="I64">
					<dim>1</dim>
				</port>
			</output>
		</layer>
		<layer id="87" name="446/Unsqueeze" type="Unsqueeze" version="opset1">
			<input>
				<port id="0" precision="I64"/>
				<port id="1" precision="I64">
					<dim>1</dim>
				</port>
			</input>
			<output>
				<port id="2" names="446" precision="I64">
					<dim>1</dim>
				</port>
			</output>
		</layer>
		<layer id="88" name="447/Dims" type="Const" version="opset1">
			<data element_type="i64" offset="32832" shape="1" size="8"/>
			<output>
				<port id="0" precision="I64">
					<dim>1</dim>
				</port>
			</output>
		</layer>
		<layer id="89" name="447/Unsqueeze" type="Unsqueeze" version="opset1">
			<input>
				<port id="0" precision="I64"/>
				<port id="1" precision="I64">
					<dim>1</dim>
				</port>
			</input>
			<output>
				<port id="2" names="447" precision="I64">
					<dim>1</dim>
				</port>
			</output>
		</layer>
		<layer id="90" name="448/Unsqueeze" type="Const" version="opset1">
			<data element_type="i64" offset="32800" shape="1" size="8"/>
			<output>
				<port id="0" names="448" precision="I64">
					<dim>1</dim>
				</port>
			</output>
		</layer>
		<layer id="91" name="449" type="Concat" version="opset1">
			<data axis="0"/>
			<input>
				<port id="0" precision="I64">
					<dim>1</dim>
				</port>
				<port id="1" precision="I64">
					<dim>1</dim>
				</port>
				<port id="2" precision="I64">
					<dim>1</dim>
				</port>
			</input>
			<output>
				<port id="3" names="449" precision="I64">
					<dim>3</dim>
				</port>
			</output>
		</layer>
		<layer id="92" name="450" type="Reshape" version="opset1">
			<data special_zero="true"/>
			<input>
				<port id="0" precision="FP32">
					<dim>128</dim>
					<dim>16</dim>
				</port>
				<port id="1" precision="I64">
					<dim>3</dim>
				</port>
			</input>
			<output>
				<port id="2" names="450,451" precision="FP32">
					<dim>8</dim>
					<dim>16</dim>
					<dim>16</dim>
				</port>
			</output>
		</layer>
		<layer id="93" name="395" type="Const" version="opset1">
			<data element_type="i64" offset="32768" shape="3" size="24"/>
			<output>
				<port id="0" names="395" precision="I64">
					<dim>3</dim>
				</port>
			</output>
		</layer>
		<layer id="94" name="396" type="Tile" version="opset1">
			<input>
				<port id="0" precision="FP32">
					<dim>1</dim>
					<dim>16</dim>
					<dim>512</dim>
				</port>
				<port id="1" precision="I64">
					<dim>3</dim>
				</port>
			</input>
			<output>
				<port id="2" names="396" precision="FP32">
					<dim>8</dim>
					<dim>16</dim>
					<dim>512</dim>
				</port>
			</output>
		</layer>
		<layer id="95" name="399/Unsqueeze" type="Const" version="opset1">
			<data element_type="i64" offset="32792" shape="1" size="8"/>
			<output>
				<port id="0" names="399" precision="I64">
					<dim>1</dim>
				</port>
			</output>
		</layer>
		<layer id="96" name="400/Unsqueeze" type="Const" version="opset1">
			<data element_type="i64" offset="32800" shape="1" size="8"/>
			<output>
				<port id="0" names="400" precision="I64">
					<dim>1</dim>
				</port>
			</output>
		</layer>
		<layer id="97" name="401/Dims" type="Const" version="opset1">
			<data element_type="i64" offset="32832" shape="1" size="8"/>
			<output>
				<port id="0" precision="I64">
					<dim>1</dim>
				</port>
			</output>
		</layer>
		<layer id="98" name="401/Unsqueeze" type="Unsqueeze" version="opset1">
			<input>
				<port id="0" precision="I64"/>
				<port id="1" precision="I64">
					<dim>1</dim>
				</port>
			</input>
			<output>
				<port id="2" names="401" precision="I64">
					<dim>1</dim>
				</port>
			</output>
		</layer>
		<layer id="99" name="402" type="Concat" version="opset1">
			<data axis="0"/>
			<input>
				<port id="0" precision="I64">
					<dim>1</dim>
				</port>
				<port id="1" precision="I64">
					<dim>1</dim>
				</port>
				<port id="2" precision="I64">
					<dim>1</dim>
				</port>
			</input>
			<output>
				<port id="3" names="402" precision="I64">
					<dim>3</dim>
				</port>
			</output>
		</layer>
		<layer id="100" name="403" type="Reshape" version="opset1">
			<data special_zero="true"/>
			<input>
				<port id="0" precision="FP32">
					<dim>8</dim>
					<dim>16</dim>
					<dim>512</dim>
				</port>
				<port id="1" precision="I64">
					<dim>3</dim>
				</port>
			</input>
			<output>
				<port id="2" names="403" precision="FP32">
					<dim>8</dim>
					<dim>16</dim>
					<dim>512</dim>
				</port>
			</output>
		</layer>
		<layer id="101" name="318" type="Const" version="opset1">
			<data element_type="f32" offset="2130296" shape="8, 512, 64" size="1048576"/>
			<output>
				<port id="0" names="318" precision="FP32">
					<dim>8</dim>
					<dim>512</dim>
					<dim>64</dim>
				</port>
			</output>
		</layer>
		<layer id="102" name="420" type="MatMul" version="opset1">
			<data transpose_a="false" transpose_b="false"/>
			<input>
				<port id="0" precision="FP32">
					<dim>8</dim>
					<dim>16</dim>
					<dim>512</dim>
				</port>
				<port id="1" precision="FP32">
					<dim>8</dim>
					<dim>512</dim>
					<dim>64</dim>
				</port>
			</input>
			<output>
				<port id="2" names="420" precision="FP32">
					<dim>8</dim>
					<dim>16</dim>
					<dim>64</dim>
				</port>
			</output>
		</layer>
		<layer id="103" name="423/Unsqueeze" type="Const" version="opset1">
			<data element_type="i64" offset="32800" shape="1" size="8"/>
			<output>
				<port id="0" names="423" precision="I64">
					<dim>1</dim>
				</port>
			</output>
		</layer>
		<layer id="104" name="371" type="ShapeOf" version="opset3">
			<data output_type="i64"/>
			<input>
				<port id="0" precision="FP32">
					<dim>1</dim>
					<dim>16</dim>
					<dim>512</dim>
				</port>
			</input>
			<output>
				<port id="1" names="371" precision="I64">
					<dim>3</dim>
				</port>
			</output>
		</layer>
		<layer id="105" name="372/Concat614620470" type="Const" version="opset1">
			<data element_type="i64" offset="32824" shape="1" size="8"/>
			<output>
				<port id="0" precision="I64">
					<dim>1</dim>
				</port>
			</output>
		</layer>
		<layer id="106" name="372/Concat6136614720440" type="Const" version="opset1">
			<data element_type="i64" offset="32808" shape="1" size="8"/>
			<output>
				<port id="0" precision="I64">
					<dim>1</dim>
				</port>
			</output>
		</layer>
		<layer id="107" name="372/Strides614820494" type="Const" version="opset1">
			<data element_type="i64" offset="32824" shape="1" size="8"/>
			<output>
				<port id="0" precision="I64">
					<dim>1</dim>
				</port>
			</output>
		</layer>
		<layer id="108" name="372" type="StridedSlice" version="opset1">
			<data begin_mask="0" ellipsis_mask="0" end_mask="0" new_axis_mask="0" shrink_axis_mask="0"/>
			<input>
				<port id="0" precision="I64">
					<dim>3</dim>
				</port>
				<port id="1" precision="I64">
					<dim>1</dim>
				</port>
				<port id="2" precision="I64">
					<dim>1</dim>
				</port>
				<port id="3" precision="I64">
					<dim>1</dim>
				</port>
			</input>
			<output>
				<port id="4" names="372" precision="I64">
					<dim>1</dim>
				</port>
			</output>
		</layer>
		<layer id="109" name="373/Dims" type="Const" version="opset1">
			<data element_type="i64" offset="32832" shape="1" size="8"/>
			<output>
				<port id="0" precision="I64">
					<dim>1</dim>
				</port>
			</output>
		</layer>
		<layer id="110" name="373" type="Squeeze" version="opset1">
			<input>
				<port id="0" precision="I64">
					<dim>1</dim>
				</port>
				<port id="1" precision="I64">
					<dim>1</dim>
				</port>
			</input>
			<output>
				<port id="2" names="373" precision="I64"/>
			</output>
		</layer>
		<layer id="111" name="424/Dims" type="Const" version="opset1">
			<data element_type="i64" offset="32832" shape="1" size="8"/>
			<output>
				<port id="0" precision="I64">
					<dim>1</dim>
				</port>
			</output>
		</layer>
		<layer id="112" name="424/Unsqueeze" type="Unsqueeze" version="opset1">
			<input>
				<port id="0" precision="I64"/>
				<port id="1" precision="I64">
					<dim>1</dim>
				</port>
			</input>
			<output>
				<port id="2" names="424" precision="I64">
					<dim>1</dim>
				</port>
			</output>
		</layer>
		<layer id="113" name="425/Unsqueeze" type="Const" version="opset1">
			<data element_type="i64" offset="1081416" shape="1" size="8"/>
			<output>
				<port id="0" names="425" precision="I64">
					<dim>1</dim>
				</port>
			</output>
		</layer>
		<layer id="114" name="426" type="Concat" version="opset1">
			<data axis="0"/>
			<input>
				<port id="0" precision="I64">
					<dim>1</dim>
				</port>
				<port id="1" precision="I64">
					<dim>1</dim>
				</port>
				<port id="2" precision="I64">
					<dim>1</dim>
				</port>
			</input>
			<output>
				<port id="3" names="426" precision="I64">
					<dim>3</dim>
				</port>
			</output>
		</layer>
		<layer id="115" name="427" type="Reshape" version="opset1">
			<data special_zero="true"/>
			<input>
				<port id="0" precision="FP32">
					<dim>8</dim>
					<dim>16</dim>
					<dim>64</dim>
				</port>
				<port id="1" precision="I64">
					<dim>3</dim>
				</port>
			</input>
			<output>
				<port id="2" names="427" precision="FP32">
					<dim>8</dim>
					<dim>16</dim>
					<dim>64</dim>
				</port>
			</output>
		</layer>
		<layer id="116" name="453" type="MatMul" version="opset1">
			<data transpose_a="false" transpose_b="false"/>
			<input>
				<port id="0" precision="FP32">
					<dim>8</dim>
					<dim>16</dim>
					<dim>16</dim>
				</port>
				<port id="1" precision="FP32">
					<dim>8</dim>
					<dim>16</dim>
					<dim>64</dim>
				</port>
			</input>
			<output>
				<port id="2" names="453" precision="FP32">
					<dim>8</dim>
					<dim>16</dim>
					<dim>64</dim>
				</port>
			</output>
		</layer>
		<layer id="117" name="454/VariadicSplit_input_port_1/value" type="Const" version="opset1">
			<data element_type="i64" offset="32832" shape="" size="8"/>
			<output>
				<port id="0" precision="I64"/>
			</output>
		</layer>
		<layer id="118" name="454/VariadicSplit_input_port_2/value" type="Const" version="opset1">
			<data element_type="i64" offset="3178872" shape="8" size="64"/>
			<output>
				<port id="0" precision="I64">
					<dim>8</dim>
				</port>
			</output>
		</layer>
		<layer id="119" name="454/VariadicSplit" type="VariadicSplit" version="opset1">
			<input>
				<port id="0" precision="FP32">
					<dim>8</dim>
					<dim>16</dim>
					<dim>64</dim>
				</port>
				<port id="1" precision="I64"/>
				<port id="2" precision="I64">
					<dim>8</dim>
				</port>
			</input>
			<output>
				<port id="3" names="454" precision="FP32">
					<dim>1</dim>
					<dim>16</dim>
					<dim>64</dim>
				</port>
				<port id="4" names="455" precision="FP32">
					<dim>1</dim>
					<dim>16</dim>
					<dim>64</dim>
				</port>
				<port id="5" names="456" precision="FP32">
					<dim>1</dim>
					<dim>16</dim>
					<dim>64</dim>
				</port>
				<port id="6" names="457" precision="FP32">
					<dim>1</dim>
					<dim>16</dim>
					<dim>64</dim>
				</port>
				<port id="7" names="458" precision="FP32">
					<dim>1</dim>
					<dim>16</dim>
					<dim>64</dim>
				</port>
				<port id="8" names="459" precision="FP32">
					<dim>1</dim>
					<dim>16</dim>
					<dim>64</dim>
				</port>
				<port id="9" names="460" precision="FP32">
					<dim>1</dim>
					<dim>16</dim>
					<dim>64</dim>
				</port>
				<port id="10" names="461" precision="FP32">
					<dim>1</dim>
					<dim>16</dim>
					<dim>64</dim>
				</port>
			</output>
		</layer>
		<layer id="120" name="462" type="Concat" version="opset1">
			<data axis="2"/>
			<input>
				<port id="0" precision="FP32">
					<dim>1</dim>
					<dim>16</dim>
					<dim>64</dim>
				</port>
				<port id="1" precision="FP32">
					<dim>1</dim>
					<dim>16</dim>
					<dim>64</dim>
				</port>
				<port id="2" precision="FP32">
					<dim>1</dim>
					<dim>16</dim>
					<dim>64</dim>
				</port>
				<port id="3" precision="FP32">
					<dim>1</dim>
					<dim>16</dim>
					<dim>64</dim>
				</port>
				<port id="4" precision="FP32">
					<dim>1</dim>
					<dim>16</dim>
					<dim>64</dim>
				</port>
				<port id="5" precision="FP32">
					<dim>1</dim>
					<dim>16</dim>
					<dim>64</dim>
				</port>
				<port id="6" precision="FP32">
					<dim>1</dim>
					<dim>16</dim>
					<dim>64</dim>
				</port>
				<port id="7" precision="FP32">
					<dim>1</dim>
					<dim>16</dim>
					<dim>64</dim>
				</port>
			</input>
			<output>
				<port id="8" names="462,463" precision="FP32">
					<dim>1</dim>
					<dim>16</dim>
					<dim>512</dim>
				</port>
			</output>
		</layer>
		<layer id="121" name="465" type="Add" version="opset1">
			<data auto_broadcast="numpy"/>
			<input>
				<port id="0" precision="FP32">
					<dim>1</dim>
					<dim>16</dim>
					<dim>512</dim>
				</port>
				<port id="1" precision="FP32">
					<dim>1</dim>
					<dim>16</dim>
					<dim>512</dim>
				</port>
			</input>
			<output>
				<port id="2" names="465" precision="FP32">
					<dim>1</dim>
					<dim>16</dim>
					<dim>512</dim>
				</port>
			</output>
		</layer>
		<layer id="122" name="799" type="Const" version="opset1">
			<data element_type="i64" offset="2130000" shape="3" size="24"/>
			<output>
				<port id="0" precision="I64">
					<dim>3</dim>
				</port>
			</output>
		</layer>
		<layer id="123" name="466" type="Transpose" version="opset1">
			<input>
				<port id="0" precision="FP32">
					<dim>1</dim>
					<dim>16</dim>
					<dim>512</dim>
				</port>
				<port id="1" precision="I64">
					<dim>3</dim>
				</port>
			</input>
			<output>
				<port id="2" names="466" precision="FP32">
					<dim>1</dim>
					<dim>512</dim>
					<dim>16</dim>
				</port>
			</output>
		</layer>
		<layer id="124" name="321" type="Const" version="opset1">
			<data element_type="f32" offset="3178936" shape="1024, 512, 1" size="2097152"/>
			<output>
				<port id="0" names="321" precision="FP32">
					<dim>1024</dim>
					<dim>512</dim>
					<dim>1</dim>
				</port>
			</output>
		</layer>
		<layer id="125" name="467/WithoutBiases" type="Convolution" version="opset1">
			<data auto_pad="explicit" dilations="1" pads_begin="0" pads_end="0" strides="1"/>
			<input>
				<port id="0" precision="FP32">
					<dim>1</dim>
					<dim>512</dim>
					<dim>16</dim>
				</port>
				<port id="1" precision="FP32">
					<dim>1024</dim>
					<dim>512</dim>
					<dim>1</dim>
				</port>
			</input>
			<output>
				<port id="2" precision="FP32">
					<dim>1</dim>
					<dim>1024</dim>
					<dim>16</dim>
				</port>
			</output>
		</layer>
		<layer id="126" name="467/Dims5505" type="Const" version="opset1">
			<data element_type="f32" offset="5276088" shape="1, 1024, 1" size="4096"/>
			<output>
				<port id="0" precision="FP32">
					<dim>1</dim>
					<dim>1024</dim>
					<dim>1</dim>
				</port>
			</output>
		</layer>
		<layer id="127" name="467" type="Add" version="opset1">
			<data auto_broadcast="numpy"/>
			<input>
				<port id="0" precision="FP32">
					<dim>1</dim>
					<dim>1024</dim>
					<dim>16</dim>
				</port>
				<port id="1" precision="FP32">
					<dim>1</dim>
					<dim>1024</dim>
					<dim>1</dim>
				</port>
			</input>
			<output>
				<port id="2" names="467" precision="FP32">
					<dim>1</dim>
					<dim>1024</dim>
					<dim>16</dim>
				</port>
			</output>
		</layer>
		<layer id="128" name="468" type="ReLU" version="opset1">
			<input>
				<port id="0" precision="FP32">
					<dim>1</dim>
					<dim>1024</dim>
					<dim>16</dim>
				</port>
			</input>
			<output>
				<port id="1" names="468" precision="FP32">
					<dim>1</dim>
					<dim>1024</dim>
					<dim>16</dim>
				</port>
			</output>
		</layer>
		<layer id="129" name="323" type="Const" version="opset1">
			<data element_type="f32" offset="5280184" shape="512, 1024, 1" size="2097152"/>
			<output>
				<port id="0" names="323" precision="FP32">
					<dim>512</dim>
					<dim>1024</dim>
					<dim>1</dim>
				</port>
			</output>
		</layer>
		<layer id="130" name="469/WithoutBiases" type="Convolution" version="opset1">
			<data auto_pad="explicit" dilations="1" pads_begin="0" pads_end="0" strides="1"/>
			<input>
				<port id="0" precision="FP32">
					<dim>1</dim>
					<dim>1024</dim>
					<dim>16</dim>
				</port>
				<port id="1" precision="FP32">
					<dim>512</dim>
					<dim>1024</dim>
					<dim>1</dim>
				</port>
			</input>
			<output>
				<port id="2" precision="FP32">
					<dim>1</dim>
					<dim>512</dim>
					<dim>16</dim>
				</port>
			</output>
		</layer>
		<layer id="131" name="469/Dims5487" type="Const" version="opset1">
			<data element_type="f32" offset="7377336" shape="1, 512, 1" size="2048"/>
			<output>
				<port id="0" precision="FP32">
					<dim>1</dim>
					<dim>512</dim>
					<dim>1</dim>
				</port>
			</output>
		</layer>
		<layer id="132" name="469" type="Add" version="opset1">
			<data auto_broadcast="numpy"/>
			<input>
				<port id="0" precision="FP32">
					<dim>1</dim>
					<dim>512</dim>
					<dim>16</dim>
				</port>
				<port id="1" precision="FP32">
					<dim>1</dim>
					<dim>512</dim>
					<dim>1</dim>
				</port>
			</input>
			<output>
				<port id="2" names="469" precision="FP32">
					<dim>1</dim>
					<dim>512</dim>
					<dim>16</dim>
				</port>
			</output>
		</layer>
		<layer id="133" name="783" type="Const" version="opset1">
			<data element_type="i64" offset="2130000" shape="3" size="24"/>
			<output>
				<port id="0" precision="I64">
					<dim>3</dim>
				</port>
			</output>
		</layer>
		<layer id="134" name="470" type="Transpose" version="opset1">
			<input>
				<port id="0" precision="FP32">
					<dim>1</dim>
					<dim>512</dim>
					<dim>16</dim>
				</port>
				<port id="1" precision="I64">
					<dim>3</dim>
				</port>
			</input>
			<output>
				<port id="2" names="470,471" precision="FP32">
					<dim>1</dim>
					<dim>16</dim>
					<dim>512</dim>
				</port>
			</output>
		</layer>
		<layer id="135" name="473" type="Add" version="opset1">
			<data auto_broadcast="numpy"/>
			<input>
				<port id="0" precision="FP32">
					<dim>1</dim>
					<dim>16</dim>
					<dim>512</dim>
				</port>
				<port id="1" precision="FP32">
					<dim>1</dim>
					<dim>16</dim>
					<dim>512</dim>
				</port>
			</input>
			<output>
				<port id="2" names="473" precision="FP32">
					<dim>1</dim>
					<dim>16</dim>
					<dim>512</dim>
				</port>
			</output>
		</layer>
		<layer id="136" name="486" type="Const" version="opset1">
			<data element_type="i64" offset="32768" shape="3" size="24"/>
			<output>
				<port id="0" names="486" precision="I64">
					<dim>3</dim>
				</port>
			</output>
		</layer>
		<layer id="137" name="487" type="Tile" version="opset1">
			<input>
				<port id="0" precision="FP32">
					<dim>1</dim>
					<dim>16</dim>
					<dim>512</dim>
				</port>
				<port id="1" precision="I64">
					<dim>3</dim>
				</port>
			</input>
			<output>
				<port id="2" names="487" precision="FP32">
					<dim>8</dim>
					<dim>16</dim>
					<dim>512</dim>
				</port>
			</output>
		</layer>
		<layer id="138" name="490/Unsqueeze" type="Const" version="opset1">
			<data element_type="i64" offset="32792" shape="1" size="8"/>
			<output>
				<port id="0" names="490" precision="I64">
					<dim>1</dim>
				</port>
			</output>
		</layer>
		<layer id="139" name="491/Unsqueeze" type="Const" version="opset1">
			<data element_type="i64" offset="32800" shape="1" size="8"/>
			<output>
				<port id="0" names="491" precision="I64">
					<dim>1</dim>
				</port>
			</output>
		</layer>
		<layer id="140" name="483" type="ShapeOf" version="opset3">
			<data output_type="i64"/>
			<input>
				<port id="0" precision="FP32">
					<dim>1</dim>
					<dim>16</dim>
					<dim>512</dim>
				</port>
			</input>
			<output>
				<port id="1" names="483" precision="I64">
					<dim>3</dim>
				</port>
			</output>
		</layer>
		<layer id="141" name="484/Concat582220377" type="Const" version="opset1">
			<data element_type="i64" offset="32808" shape="1" size="8"/>
			<output>
				<port id="0" precision="I64">
					<dim>1</dim>
				</port>
			</output>
		</layer>
		<layer id="142" name="484/Concat5812582320860" type="Const" version="opset1">
			<data element_type="i64" offset="32816" shape="1" size="8"/>
			<output>
				<port id="0" precision="I64">
					<dim>1</dim>
				</port>
			</output>
		</layer>
		<layer id="143" name="484/Strides582420413" type="Const" version="opset1">
			<data element_type="i64" offset="32824" shape="1" size="8"/>
			<output>
				<port id="0" precision="I64">
					<dim>1</dim>
				</port>
			</output>
		</layer>
		<layer id="144" name="484" type="StridedSlice" version="opset1">
			<data begin_mask="0" ellipsis_mask="0" end_mask="0" new_axis_mask="0" shrink_axis_mask="0"/>
			<input>
				<port id="0" precision="I64">
					<dim>3</dim>
				</port>
				<port id="1" precision="I64">
					<dim>1</dim>
				</port>
				<port id="2" precision="I64">
					<dim>1</dim>
				</port>
				<port id="3" precision="I64">
					<dim>1</dim>
				</port>
			</input>
			<output>
				<port id="4" names="484" precision="I64">
					<dim>1</dim>
				</port>
			</output>
		</layer>
		<layer id="145" name="485/Dims" type="Const" version="opset1">
			<data element_type="i64" offset="32832" shape="1" size="8"/>
			<output>
				<port id="0" precision="I64">
					<dim>1</dim>
				</port>
			</output>
		</layer>
		<layer id="146" name="485" type="Squeeze" version="opset1">
			<input>
				<port id="0" precision="I64">
					<dim>1</dim>
				</port>
				<port id="1" precision="I64">
					<dim>1</dim>
				</port>
			</input>
			<output>
				<port id="2" names="485" precision="I64"/>
			</output>
		</layer>
		<layer id="147" name="492/Dims" type="Const" version="opset1">
			<data element_type="i64" offset="32832" shape="1" size="8"/>
			<output>
				<port id="0" precision="I64">
					<dim>1</dim>
				</port>
			</output>
		</layer>
		<layer id="148" name="492/Unsqueeze" type="Unsqueeze" version="opset1">
			<input>
				<port id="0" precision="I64"/>
				<port id="1" precision="I64">
					<dim>1</dim>
				</port>
			</input>
			<output>
				<port id="2" names="492" precision="I64">
					<dim>1</dim>
				</port>
			</output>
		</layer>
		<layer id="149" name="493" type="Concat" version="opset1">
			<data axis="0"/>
			<input>
				<port id="0" precision="I64">
					<dim>1</dim>
				</port>
				<port id="1" precision="I64">
					<dim>1</dim>
				</port>
				<port id="2" precision="I64">
					<dim>1</dim>
				</port>
			</input>
			<output>
				<port id="3" names="493" precision="I64">
					<dim>3</dim>
				</port>
			</output>
		</layer>
		<layer id="150" name="494" type="Reshape" version="opset1">
			<data special_zero="true"/>
			<input>
				<port id="0" precision="FP32">
					<dim>8</dim>
					<dim>16</dim>
					<dim>512</dim>
				</port>
				<port id="1" precision="I64">
					<dim>3</dim>
				</port>
			</input>
			<output>
				<port id="2" names="494" precision="FP32">
					<dim>8</dim>
					<dim>16</dim>
					<dim>512</dim>
				</port>
			</output>
		</layer>
		<layer id="151" name="327" type="Const" version="opset1">
			<data element_type="f32" offset="7379384" shape="8, 512, 64" size="1048576"/>
			<output>
				<port id="0" names="327" precision="FP32">
					<dim>8</dim>
					<dim>512</dim>
					<dim>64</dim>
				</port>
			</output>
		</layer>
		<layer id="152" name="513" type="MatMul" version="opset1">
			<data transpose_a="false" transpose_b="false"/>
			<input>
				<port id="0" precision="FP32">
					<dim>8</dim>
					<dim>16</dim>
					<dim>512</dim>
				</port>
				<port id="1" precision="FP32">
					<dim>8</dim>
					<dim>512</dim>
					<dim>64</dim>
				</port>
			</input>
			<output>
				<port id="2" names="513" precision="FP32">
					<dim>8</dim>
					<dim>16</dim>
					<dim>64</dim>
				</port>
			</output>
		</layer>
		<layer id="153" name="516/Unsqueeze" type="Const" version="opset1">
			<data element_type="i64" offset="32800" shape="1" size="8"/>
			<output>
				<port id="0" names="516" precision="I64">
					<dim>1</dim>
				</port>
			</output>
		</layer>
		<layer id="154" name="474" type="ShapeOf" version="opset3">
			<data output_type="i64"/>
			<input>
				<port id="0" precision="FP32">
					<dim>1</dim>
					<dim>16</dim>
					<dim>512</dim>
				</port>
			</input>
			<output>
				<port id="1" names="474" precision="I64">
					<dim>3</dim>
				</port>
			</output>
		</layer>
		<layer id="155" name="475/Concat661420632" type="Const" version="opset1">
			<data element_type="i64" offset="32824" shape="1" size="8"/>
			<output>
				<port id="0" precision="I64">
					<dim>1</dim>
				</port>
			</output>
		</layer>
		<layer id="156" name="475/Concat6604661520659" type="Const" version="opset1">
			<data element_type="i64" offset="32808" shape="1" size="8"/>
			<output>
				<port id="0" precision="I64">
					<dim>1</dim>
				</port>
			</output>
		</layer>
		<layer id="157" name="475/Strides661620368" type="Const" version="opset1">
			<data element_type="i64" offset="32824" shape="1" size="8"/>
			<output>
				<port id="0" precision="I64">
					<dim>1</dim>
				</port>
			</output>
		</layer>
		<layer id="158" name="475" type="StridedSlice" version="opset1">
			<data begin_mask="0" ellipsis_mask="0" end_mask="0" new_axis_mask="0" shrink_axis_mask="0"/>
			<input>
				<port id="0" precision="I64">
					<dim>3</dim>
				</port>
				<port id="1" precision="I64">
					<dim>1</dim>
				</port>
				<port id="2" precision="I64">
					<dim>1</dim>
				</port>
				<port id="3" precision="I64">
					<dim>1</dim>
				</port>
			</input>
			<output>
				<port id="4" names="475" precision="I64">
					<dim>1</dim>
				</port>
			</output>
		</layer>
		<layer id="159" name="476/Dims" type="Const" version="opset1">
			<data element_type="i64" offset="32832" shape="1" size="8"/>
			<output>
				<port id="0" precision="I64">
					<dim>1</dim>
				</port>
			</output>
		</layer>
		<layer id="160" name="476" type="Squeeze" version="opset1">
			<input>
				<port id="0" precision="I64">
					<dim>1</dim>
				</port>
				<port id="1" precision="I64">
					<dim>1</dim>
				</port>
			</input>
			<output>
				<port id="2" names="476" precision="I64"/>
			</output>
		</layer>
		<layer id="161" name="517/Dims" type="Const" version="opset1">
			<data element_type="i64" offset="32832" shape="1" size="8"/>
			<output>
				<port id="0" precision="I64">
					<dim>1</dim>
				</port>
			</output>
		</layer>
		<layer id="162" name="517/Unsqueeze" type="Unsqueeze" version="opset1">
			<input>
				<port id="0" precision="I64"/>
				<port id="1" precision="I64">
					<dim>1</dim>
				</port>
			</input>
			<output>
				<port id="2" names="517" precision="I64">
					<dim>1</dim>
				</port>
			</output>
		</layer>
		<layer id="163" name="518/Unsqueeze" type="Const" version="opset1">
			<data element_type="i64" offset="1081416" shape="1" size="8"/>
			<output>
				<port id="0" names="518" precision="I64">
					<dim>1</dim>
				</port>
			</output>
		</layer>
		<layer id="164" name="519" type="Concat" version="opset1">
			<data axis="0"/>
			<input>
				<port id="0" precision="I64">
					<dim>1</dim>
				</port>
				<port id="1" precision="I64">
					<dim>1</dim>
				</port>
				<port id="2" precision="I64">
					<dim>1</dim>
				</port>
			</input>
			<output>
				<port id="3" names="519" precision="I64">
					<dim>3</dim>
				</port>
			</output>
		</layer>
		<layer id="165" name="520" type="Reshape" version="opset1">
			<data special_zero="true"/>
			<input>
				<port id="0" precision="FP32">
					<dim>8</dim>
					<dim>16</dim>
					<dim>64</dim>
				</port>
				<port id="1" precision="I64">
					<dim>3</dim>
				</port>
			</input>
			<output>
				<port id="2" names="520" precision="FP32">
					<dim>8</dim>
					<dim>16</dim>
					<dim>64</dim>
				</port>
			</output>
		</layer>
		<layer id="166" name="495" type="Const" version="opset1">
			<data element_type="i64" offset="32768" shape="3" size="24"/>
			<output>
				<port id="0" names="495" precision="I64">
					<dim>3</dim>
				</port>
			</output>
		</layer>
		<layer id="167" name="496" type="Tile" version="opset1">
			<input>
				<port id="0" precision="FP32">
					<dim>1</dim>
					<dim>16</dim>
					<dim>512</dim>
				</port>
				<port id="1" precision="I64">
					<dim>3</dim>
				</port>
			</input>
			<output>
				<port id="2" names="496" precision="FP32">
					<dim>8</dim>
					<dim>16</dim>
					<dim>512</dim>
				</port>
			</output>
		</layer>
		<layer id="168" name="499/Unsqueeze" type="Const" version="opset1">
			<data element_type="i64" offset="32792" shape="1" size="8"/>
			<output>
				<port id="0" names="499" precision="I64">
					<dim>1</dim>
				</port>
			</output>
		</layer>
		<layer id="169" name="500/Unsqueeze" type="Const" version="opset1">
			<data element_type="i64" offset="32800" shape="1" size="8"/>
			<output>
				<port id="0" names="500" precision="I64">
					<dim>1</dim>
				</port>
			</output>
		</layer>
		<layer id="170" name="501/Dims" type="Const" version="opset1">
			<data element_type="i64" offset="32832" shape="1" size="8"/>
			<output>
				<port id="0" precision="I64">
					<dim>1</dim>
				</port>
			</output>
		</layer>
		<layer id="171" name="501/Unsqueeze" type="Unsqueeze" version="opset1">
			<input>
				<port id="0" precision="I64"/>
				<port id="1" precision="I64">
					<dim>1</dim>
				</port>
			</input>
			<output>
				<port id="2" names="501" precision="I64">
					<dim>1</dim>
				</port>
			</output>
		</layer>
		<layer id="172" name="502" type="Concat" version="opset1">
			<data axis="0"/>
			<input>
				<port id="0" precision="I64">
					<dim>1</dim>
				</port>
				<port id="1" precision="I64">
					<dim>1</dim>
				</port>
				<port id="2" precision="I64">
					<dim>1</dim>
				</port>
			</input>
			<output>
				<port id="3" names="502" precision="I64">
					<dim>3</dim>
				</port>
			</output>
		</layer>
		<layer id="173" name="503" type="Reshape" version="opset1">
			<data special_zero="true"/>
			<input>
				<port id="0" precision="FP32">
					<dim>8</dim>
					<dim>16</dim>
					<dim>512</dim>
				</port>
				<port id="1" precision="I64">
					<dim>3</dim>
				</port>
			</input>
			<output>
				<port id="2" names="503" precision="FP32">
					<dim>8</dim>
					<dim>16</dim>
					<dim>512</dim>
				</port>
			</output>
		</layer>
		<layer id="174" name="328" type="Const" version="opset1">
			<data element_type="f32" offset="8427960" shape="8, 512, 64" size="1048576"/>
			<output>
				<port id="0" names="328" precision="FP32">
					<dim>8</dim>
					<dim>512</dim>
					<dim>64</dim>
				</port>
			</output>
		</layer>
		<layer id="175" name="521" type="MatMul" version="opset1">
			<data transpose_a="false" transpose_b="false"/>
			<input>
				<port id="0" precision="FP32">
					<dim>8</dim>
					<dim>16</dim>
					<dim>512</dim>
				</port>
				<port id="1" precision="FP32">
					<dim>8</dim>
					<dim>512</dim>
					<dim>64</dim>
				</port>
			</input>
			<output>
				<port id="2" names="521" precision="FP32">
					<dim>8</dim>
					<dim>16</dim>
					<dim>64</dim>
				</port>
			</output>
		</layer>
		<layer id="176" name="524/Unsqueeze" type="Const" version="opset1">
			<data element_type="i64" offset="32800" shape="1" size="8"/>
			<output>
				<port id="0" names="524" precision="I64">
					<dim>1</dim>
				</port>
			</output>
		</layer>
		<layer id="177" name="477" type="ShapeOf" version="opset3">
			<data output_type="i64"/>
			<input>
				<port id="0" precision="FP32">
					<dim>1</dim>
					<dim>16</dim>
					<dim>512</dim>
				</port>
			</input>
			<output>
				<port id="1" names="477" precision="I64">
					<dim>3</dim>
				</port>
			</output>
		</layer>
		<layer id="178" name="478/Concat636220653" type="Const" version="opset1">
			<data element_type="i64" offset="32824" shape="1" size="8"/>
			<output>
				<port id="0" precision="I64">
					<dim>1</dim>
				</port>
			</output>
		</layer>
		<layer id="179" name="478/Concat6352636320407" type="Const" version="opset1">
			<data element_type="i64" offset="32808" shape="1" size="8"/>
			<output>
				<port id="0" precision="I64">
					<dim>1</dim>
				</port>
			</output>
		</layer>
		<layer id="180" name="478/Strides636420662" type="Const" version="opset1">
			<data element_type="i64" offset="32824" shape="1" size="8"/>
			<output>
				<port id="0" precision="I64">
					<dim>1</dim>
				</port>
			</output>
		</layer>
		<layer id="181" name="478" type="StridedSlice" version="opset1">
			<data begin_mask="0" ellipsis_mask="0" end_mask="0" new_axis_mask="0" shrink_axis_mask="0"/>
			<input>
				<port id="0" precision="I64">
					<dim>3</dim>
				</port>
				<port id="1" precision="I64">
					<dim>1</dim>
				</port>
				<port id="2" precision="I64">
					<dim>1</dim>
				</port>
				<port id="3" precision="I64">
					<dim>1</dim>
				</port>
			</input>
			<output>
				<port id="4" names="478" precision="I64">
					<dim>1</dim>
				</port>
			</output>
		</layer>
		<layer id="182" name="479/Dims" type="Const" version="opset1">
			<data element_type="i64" offset="32832" shape="1" size="8"/>
			<output>
				<port id="0" precision="I64">
					<dim>1</dim>
				</port>
			</output>
		</layer>
		<layer id="183" name="479" type="Squeeze" version="opset1">
			<input>
				<port id="0" precision="I64">
					<dim>1</dim>
				</port>
				<port id="1" precision="I64">
					<dim>1</dim>
				</port>
			</input>
			<output>
				<port id="2" names="479" precision="I64"/>
			</output>
		</layer>
		<layer id="184" name="525/Dims" type="Const" version="opset1">
			<data element_type="i64" offset="32832" shape="1" size="8"/>
			<output>
				<port id="0" precision="I64">
					<dim>1</dim>
				</port>
			</output>
		</layer>
		<layer id="185" name="525/Unsqueeze" type="Unsqueeze" version="opset1">
			<input>
				<port id="0" precision="I64"/>
				<port id="1" precision="I64">
					<dim>1</dim>
				</port>
			</input>
			<output>
				<port id="2" names="525" precision="I64">
					<dim>1</dim>
				</port>
			</output>
		</layer>
		<layer id="186" name="526/Unsqueeze" type="Const" version="opset1">
			<data element_type="i64" offset="1081416" shape="1" size="8"/>
			<output>
				<port id="0" names="526" precision="I64">
					<dim>1</dim>
				</port>
			</output>
		</layer>
		<layer id="187" name="527" type="Concat" version="opset1">
			<data axis="0"/>
			<input>
				<port id="0" precision="I64">
					<dim>1</dim>
				</port>
				<port id="1" precision="I64">
					<dim>1</dim>
				</port>
				<port id="2" precision="I64">
					<dim>1</dim>
				</port>
			</input>
			<output>
				<port id="3" names="527" precision="I64">
					<dim>3</dim>
				</port>
			</output>
		</layer>
		<layer id="188" name="528" type="Reshape" version="opset1">
			<data special_zero="true"/>
			<input>
				<port id="0" precision="FP32">
					<dim>8</dim>
					<dim>16</dim>
					<dim>64</dim>
				</port>
				<port id="1" precision="I64">
					<dim>3</dim>
				</port>
			</input>
			<output>
				<port id="2" names="528" precision="FP32">
					<dim>8</dim>
					<dim>16</dim>
					<dim>64</dim>
				</port>
			</output>
		</layer>
		<layer id="189" name="788" type="Const" version="opset1">
			<data element_type="i64" offset="2130000" shape="3" size="24"/>
			<output>
				<port id="0" precision="I64">
					<dim>3</dim>
				</port>
			</output>
		</layer>
		<layer id="190" name="537" type="Transpose" version="opset1">
			<input>
				<port id="0" precision="FP32">
					<dim>8</dim>
					<dim>16</dim>
					<dim>64</dim>
				</port>
				<port id="1" precision="I64">
					<dim>3</dim>
				</port>
			</input>
			<output>
				<port id="2" precision="FP32">
					<dim>8</dim>
					<dim>64</dim>
					<dim>16</dim>
				</port>
			</output>
		</layer>
		<layer id="191" name="540_copy/const9861" type="Const" version="opset1">
			<data element_type="f32" offset="2130024" shape="1, 64, 1" size="256"/>
			<output>
				<port id="0" precision="FP32">
					<dim>1</dim>
					<dim>64</dim>
					<dim>1</dim>
				</port>
			</output>
		</layer>
		<layer id="192" name="540_copy" type="Multiply" version="opset1">
			<data auto_broadcast="numpy"/>
			<input>
				<port id="0" precision="FP32">
					<dim>8</dim>
					<dim>64</dim>
					<dim>16</dim>
				</port>
				<port id="1" precision="FP32">
					<dim>1</dim>
					<dim>64</dim>
					<dim>1</dim>
				</port>
			</input>
			<output>
				<port id="2" names="537" precision="FP32">
					<dim>8</dim>
					<dim>64</dim>
					<dim>16</dim>
				</port>
			</output>
		</layer>
		<layer id="193" name="538" type="MatMul" version="opset1">
			<data transpose_a="false" transpose_b="false"/>
			<input>
				<port id="0" precision="FP32">
					<dim>8</dim>
					<dim>16</dim>
					<dim>64</dim>
				</port>
				<port id="1" precision="FP32">
					<dim>8</dim>
					<dim>64</dim>
					<dim>16</dim>
				</port>
			</input>
			<output>
				<port id="2" names="540" precision="FP32">
					<dim>8</dim>
					<dim>16</dim>
					<dim>16</dim>
				</port>
			</output>
		</layer>
		<layer id="194" name="541" type="ShapeOf" version="opset3">
			<data output_type="i64"/>
			<input>
				<port id="0" precision="FP32">
					<dim>8</dim>
					<dim>16</dim>
					<dim>16</dim>
				</port>
			</input>
			<output>
				<port id="1" names="541" precision="I64">
					<dim>3</dim>
				</port>
			</output>
		</layer>
		<layer id="195" name="542/Concat611020569" type="Const" version="opset1">
			<data element_type="i64" offset="32832" shape="1" size="8"/>
			<output>
				<port id="0" precision="I64">
					<dim>1</dim>
				</port>
			</output>
		</layer>
		<layer id="196" name="542/Concat6100611120479" type="Const" version="opset1">
			<data element_type="i64" offset="32824" shape="1" size="8"/>
			<output>
				<port id="0" precision="I64">
					<dim>1</dim>
				</port>
			</output>
		</layer>
		<layer id="197" name="542/Strides611220944" type="Const" version="opset1">
			<data element_type="i64" offset="32824" shape="1" size="8"/>
			<output>
				<port id="0" precision="I64">
					<dim>1</dim>
				</port>
			</output>
		</layer>
		<layer id="198" name="542" type="StridedSlice" version="opset1">
			<data begin_mask="0" ellipsis_mask="0" end_mask="0" new_axis_mask="0" shrink_axis_mask="0"/>
			<input>
				<port id="0" precision="I64">
					<dim>3</dim>
				</port>
				<port id="1" precision="I64">
					<dim>1</dim>
				</port>
				<port id="2" precision="I64">
					<dim>1</dim>
				</port>
				<port id="3" precision="I64">
					<dim>1</dim>
				</port>
			</input>
			<output>
				<port id="4" names="542" precision="I64">
					<dim>1</dim>
				</port>
			</output>
		</layer>
		<layer id="199" name="543/Dims" type="Const" version="opset1">
			<data element_type="i64" offset="32832" shape="1" size="8"/>
			<output>
				<port id="0" precision="I64">
					<dim>1</dim>
				</port>
			</output>
		</layer>
		<layer id="200" name="543" type="Squeeze" version="opset1">
			<input>
				<port id="0" precision="I64">
					<dim>1</dim>
				</port>
				<port id="1" precision="I64">
					<dim>1</dim>
				</port>
			</input>
			<output>
				<port id="2" names="543" precision="I64"/>
			</output>
		</layer>
		<layer id="201" name="544" type="ShapeOf" version="opset3">
			<data output_type="i64"/>
			<input>
				<port id="0" precision="FP32">
					<dim>8</dim>
					<dim>16</dim>
					<dim>16</dim>
				</port>
			</input>
			<output>
				<port id="1" names="544" precision="I64">
					<dim>3</dim>
				</port>
			</output>
		</layer>
		<layer id="202" name="545/Concat632620677" type="Const" version="opset1">
			<data element_type="i64" offset="32824" shape="1" size="8"/>
			<output>
				<port id="0" precision="I64">
					<dim>1</dim>
				</port>
			</output>
		</layer>
		<layer id="203" name="545/Concat6316632720473" type="Const" version="opset1">
			<data element_type="i64" offset="32808" shape="1" size="8"/>
			<output>
				<port id="0" precision="I64">
					<dim>1</dim>
				</port>
			</output>
		</layer>
		<layer id="204" name="545/Strides632820983" type="Const" version="opset1">
			<data element_type="i64" offset="32824" shape="1" size="8"/>
			<output>
				<port id="0" precision="I64">
					<dim>1</dim>
				</port>
			</output>
		</layer>
		<layer id="205" name="545" type="StridedSlice" version="opset1">
			<data begin_mask="0" ellipsis_mask="0" end_mask="0" new_axis_mask="0" shrink_axis_mask="0"/>
			<input>
				<port id="0" precision="I64">
					<dim>3</dim>
				</port>
				<port id="1" precision="I64">
					<dim>1</dim>
				</port>
				<port id="2" precision="I64">
					<dim>1</dim>
				</port>
				<port id="3" precision="I64">
					<dim>1</dim>
				</port>
			</input>
			<output>
				<port id="4" names="545" precision="I64">
					<dim>1</dim>
				</port>
			</output>
		</layer>
		<layer id="206" name="546/Dims" type="Const" version="opset1">
			<data element_type="i64" offset="32832" shape="1" size="8"/>
			<output>
				<port id="0" precision="I64">
					<dim>1</dim>
				</port>
			</output>
		</layer>
		<layer id="207" name="546" type="Squeeze" version="opset1">
			<input>
				<port id="0" precision="I64">
					<dim>1</dim>
				</port>
				<port id="1" precision="I64">
					<dim>1</dim>
				</port>
			</input>
			<output>
				<port id="2" names="546" precision="I64"/>
			</output>
		</layer>
		<layer id="208" name="547" type="Multiply" version="opset1">
			<data auto_broadcast="numpy"/>
			<input>
				<port id="0" precision="I64"/>
				<port id="1" precision="I64"/>
			</input>
			<output>
				<port id="2" names="547" precision="I64"/>
			</output>
		</layer>
		<layer id="209" name="549/Dims" type="Const" version="opset1">
			<data element_type="i64" offset="32832" shape="1" size="8"/>
			<output>
				<port id="0" precision="I64">
					<dim>1</dim>
				</port>
			</output>
		</layer>
		<layer id="210" name="549/Unsqueeze" type="Unsqueeze" version="opset1">
			<input>
				<port id="0" precision="I64"/>
				<port id="1" precision="I64">
					<dim>1</dim>
				</port>
			</input>
			<output>
				<port id="2" names="549" precision="I64">
					<dim>1</dim>
				</port>
			</output>
		</layer>
		<layer id="211" name="550/Unsqueeze" type="Const" version="opset1">
			<data element_type="i64" offset="32800" shape="1" size="8"/>
			<output>
				<port id="0" names="550" precision="I64">
					<dim>1</dim>
				</port>
			</output>
		</layer>
		<layer id="212" name="551" type="Concat" version="opset1">
			<data axis="0"/>
			<input>
				<port id="0" precision="I64">
					<dim>1</dim>
				</port>
				<port id="1" precision="I64">
					<dim>1</dim>
				</port>
			</input>
			<output>
				<port id="2" names="551" precision="I64">
					<dim>2</dim>
				</port>
			</output>
		</layer>
		<layer id="213" name="552" type="Reshape" version="opset1">
			<data special_zero="true"/>
			<input>
				<port id="0" precision="FP32">
					<dim>8</dim>
					<dim>16</dim>
					<dim>16</dim>
				</port>
				<port id="1" precision="I64">
					<dim>2</dim>
				</port>
			</input>
			<output>
				<port id="2" names="552" precision="FP32">
					<dim>128</dim>
					<dim>16</dim>
				</port>
			</output>
		</layer>
		<layer id="214" name="553/FlattenONNX_/Reshape/shape" type="Const" version="opset1">
			<data element_type="i64" offset="2130280" shape="2" size="16"/>
			<output>
				<port id="0" precision="I64">
					<dim>2</dim>
				</port>
			</output>
		</layer>
		<layer id="215" name="553/FlattenONNX_/Reshape" type="Reshape" version="opset1">
			<data special_zero="true"/>
			<input>
				<port id="0" precision="FP32">
					<dim>128</dim>
					<dim>16</dim>
				</port>
				<port id="1" precision="I64">
					<dim>2</dim>
				</port>
			</input>
			<output>
				<port id="2" precision="FP32">
					<dim>128</dim>
					<dim>16</dim>
				</port>
			</output>
		</layer>
		<layer id="216" name="553/Softmax_" type="SoftMax" version="opset1">
			<data axis="1"/>
			<input>
				<port id="0" precision="FP32">
					<dim>128</dim>
					<dim>16</dim>
				</port>
			</input>
			<output>
				<port id="1" precision="FP32">
					<dim>128</dim>
					<dim>16</dim>
				</port>
			</output>
		</layer>
		<layer id="217" name="553/ShapeOf_" type="ShapeOf" version="opset3">
			<data output_type="i64"/>
			<input>
				<port id="0" precision="FP32">
					<dim>128</dim>
					<dim>16</dim>
				</port>
			</input>
			<output>
				<port id="1" precision="I64">
					<dim>2</dim>
				</port>
			</output>
		</layer>
		<layer id="218" name="553" type="Reshape" version="opset1">
			<data special_zero="true"/>
			<input>
				<port id="0" precision="FP32">
					<dim>128</dim>
					<dim>16</dim>
				</port>
				<port id="1" precision="I64">
					<dim>2</dim>
				</port>
			</input>
			<output>
				<port id="2" names="553" precision="FP32">
					<dim>128</dim>
					<dim>16</dim>
				</port>
			</output>
		</layer>
		<layer id="219" name="555/Dims" type="Const" version="opset1">
			<data element_type="i64" offset="32832" shape="1" size="8"/>
			<output>
				<port id="0" precision="I64">
					<dim>1</dim>
				</port>
			</output>
		</layer>
		<layer id="220" name="555/Unsqueeze" type="Unsqueeze" version="opset1">
			<input>
				<port id="0" precision="I64"/>
				<port id="1" precision="I64">
					<dim>1</dim>
				</port>
			</input>
			<output>
				<port id="2" names="555" precision="I64">
					<dim>1</dim>
				</port>
			</output>
		</layer>
		<layer id="221" name="556/Dims" type="Const" version="opset1">
			<data element_type="i64" offset="32832" shape="1" size="8"/>
			<output>
				<port id="0" precision="I64">
					<dim>1</dim>
				</port>
			</output>
		</layer>
		<layer id="222" name="556/Unsqueeze" type="Unsqueeze" version="opset1">
			<input>
				<port id="0" precision="I64"/>
				<port id="1" precision="I64">
					<dim>1</dim>
				</port>
			</input>
			<output>
				<port id="2" names="556" precision="I64">
					<dim>1</dim>
				</port>
			</output>
		</layer>
		<layer id="223" name="557/Unsqueeze" type="Const" version="opset1">
			<data element_type="i64" offset="32800" shape="1" size="8"/>
			<output>
				<port id="0" names="557" precision="I64">
					<dim>1</dim>
				</port>
			</output>
		</layer>
		<layer id="224" name="558" type="Concat" version="opset1">
			<data axis="0"/>
			<input>
				<port id="0" precision="I64">
					<dim>1</dim>
				</port>
				<port id="1" precision="I64">
					<dim>1</dim>
				</port>
				<port id="2" precision="I64">
					<dim>1</dim>
				</port>
			</input>
			<output>
				<port id="3" names="558" precision="I64">
					<dim>3</dim>
				</port>
			</output>
		</layer>
		<layer id="225" name="559" type="Reshape" version="opset1">
			<data special_zero="true"/>
			<input>
				<port id="0" precision="FP32">
					<dim>128</dim>
					<dim>16</dim>
				</port>
				<port id="1" precision="I64">
					<dim>3</dim>
				</port>
			</input>
			<output>
				<port id="2" names="559,560" precision="FP32">
					<dim>8</dim>
					<dim>16</dim>
					<dim>16</dim>
				</port>
			</output>
		</layer>
		<layer id="226" name="504" type="Const" version="opset1">
			<data element_type="i64" offset="32768" shape="3" size="24"/>
			<output>
				<port id="0" names="504" precision="I64">
					<dim>3</dim>
				</port>
			</output>
		</layer>
		<layer id="227" name="505" type="Tile" version="opset1">
			<input>
				<port id="0" precision="FP32">
					<dim>1</dim>
					<dim>16</dim>
					<dim>512</dim>
				</port>
				<port id="1" precision="I64">
					<dim>3</dim>
				</port>
			</input>
			<output>
				<port id="2" names="505" precision="FP32">
					<dim>8</dim>
					<dim>16</dim>
					<dim>512</dim>
				</port>
			</output>
		</layer>
		<layer id="228" name="508/Unsqueeze" type="Const" version="opset1">
			<data element_type="i64" offset="32792" shape="1" size="8"/>
			<output>
				<port id="0" names="508" precision="I64">
					<dim>1</dim>
				</port>
			</output>
		</layer>
		<layer id="229" name="509/Unsqueeze" type="Const" version="opset1">
			<data element_type="i64" offset="32800" shape="1" size="8"/>
			<output>
				<port id="0" names="509" precision="I64">
					<dim>1</dim>
				</port>
			</output>
		</layer>
		<layer id="230" name="510/Dims" type="Const" version="opset1">
			<data element_type="i64" offset="32832" shape="1" size="8"/>
			<output>
				<port id="0" precision="I64">
					<dim>1</dim>
				</port>
			</output>
		</layer>
		<layer id="231" name="510/Unsqueeze" type="Unsqueeze" version="opset1">
			<input>
				<port id="0" precision="I64"/>
				<port id="1" precision="I64">
					<dim>1</dim>
				</port>
			</input>
			<output>
				<port id="2" names="510" precision="I64">
					<dim>1</dim>
				</port>
			</output>
		</layer>
		<layer id="232" name="511" type="Concat" version="opset1">
			<data axis="0"/>
			<input>
				<port id="0" precision="I64">
					<dim>1</dim>
				</port>
				<port id="1" precision="I64">
					<dim>1</dim>
				</port>
				<port id="2" precision="I64">
					<dim>1</dim>
				</port>
			</input>
			<output>
				<port id="3" names="511" precision="I64">
					<dim>3</dim>
				</port>
			</output>
		</layer>
		<layer id="233" name="512" type="Reshape" version="opset1">
			<data special_zero="true"/>
			<input>
				<port id="0" precision="FP32">
					<dim>8</dim>
					<dim>16</dim>
					<dim>512</dim>
				</port>
				<port id="1" precision="I64">
					<dim>3</dim>
				</port>
			</input>
			<output>
				<port id="2" names="512" precision="FP32">
					<dim>8</dim>
					<dim>16</dim>
					<dim>512</dim>
				</port>
			</output>
		</layer>
		<layer id="234" name="329" type="Const" version="opset1">
			<data element_type="f32" offset="9476536" shape="8, 512, 64" size="1048576"/>
			<output>
				<port id="0" names="329" precision="FP32">
					<dim>8</dim>
					<dim>512</dim>
					<dim>64</dim>
				</port>
			</output>
		</layer>
		<layer id="235" name="529" type="MatMul" version="opset1">
			<data transpose_a="false" transpose_b="false"/>
			<input>
				<port id="0" precision="FP32">
					<dim>8</dim>
					<dim>16</dim>
					<dim>512</dim>
				</port>
				<port id="1" precision="FP32">
					<dim>8</dim>
					<dim>512</dim>
					<dim>64</dim>
				</port>
			</input>
			<output>
				<port id="2" names="529" precision="FP32">
					<dim>8</dim>
					<dim>16</dim>
					<dim>64</dim>
				</port>
			</output>
		</layer>
		<layer id="236" name="532/Unsqueeze" type="Const" version="opset1">
			<data element_type="i64" offset="32800" shape="1" size="8"/>
			<output>
				<port id="0" names="532" precision="I64">
					<dim>1</dim>
				</port>
			</output>
		</layer>
		<layer id="237" name="480" type="ShapeOf" version="opset3">
			<data output_type="i64"/>
			<input>
				<port id="0" precision="FP32">
					<dim>1</dim>
					<dim>16</dim>
					<dim>512</dim>
				</port>
			</input>
			<output>
				<port id="1" names="480" precision="I64">
					<dim>3</dim>
				</port>
			</output>
		</layer>
		<layer id="238" name="481/Concat600220836" type="Const" version="opset1">
			<data element_type="i64" offset="32824" shape="1" size="8"/>
			<output>
				<port id="0" precision="I64">
					<dim>1</dim>
				</port>
			</output>
		</layer>
		<layer id="239" name="481/Concat5992600320776" type="Const" version="opset1">
			<data element_type="i64" offset="32808" shape="1" size="8"/>
			<output>
				<port id="0" precision="I64">
					<dim>1</dim>
				</port>
			</output>
		</layer>
		<layer id="240" name="481/Strides600420581" type="Const" version="opset1">
			<data element_type="i64" offset="32824" shape="1" size="8"/>
			<output>
				<port id="0" precision="I64">
					<dim>1</dim>
				</port>
			</output>
		</layer>
		<layer id="241" name="481" type="StridedSlice" version="opset1">
			<data begin_mask="0" ellipsis_mask="0" end_mask="0" new_axis_mask="0" shrink_axis_mask="0"/>
			<input>
				<port id="0" precision="I64">
					<dim>3</dim>
				</port>
				<port id="1" precision="I64">
					<dim>1</dim>
				</port>
				<port id="2" precision="I64">
					<dim>1</dim>
				</port>
				<port id="3" precision="I64">
					<dim>1</dim>
				</port>
			</input>
			<output>
				<port id="4" names="481" precision="I64">
					<dim>1</dim>
				</port>
			</output>
		</layer>
		<layer id="242" name="482/Dims" type="Const" version="opset1">
			<data element_type="i64" offset="32832" shape="1" size="8"/>
			<output>
				<port id="0" precision="I64">
					<dim>1</dim>
				</port>
			</output>
		</layer>
		<layer id="243" name="482" type="Squeeze" version="opset1">
			<input>
				<port id="0" precision="I64">
					<dim>1</dim>
				</port>
				<port id="1" precision="I64">
					<dim>1</dim>
				</port>
			</input>
			<output>
				<port id="2" names="482" precision="I64"/>
			</output>
		</layer>
		<layer id="244" name="533/Dims" type="Const" version="opset1">
			<data element_type="i64" offset="32832" shape="1" size="8"/>
			<output>
				<port id="0" precision="I64">
					<dim>1</dim>
				</port>
			</output>
		</layer>
		<layer id="245" name="533/Unsqueeze" type="Unsqueeze" version="opset1">
			<input>
				<port id="0" precision="I64"/>
				<port id="1" precision="I64">
					<dim>1</dim>
				</port>
			</input>
			<output>
				<port id="2" names="533" precision="I64">
					<dim>1</dim>
				</port>
			</output>
		</layer>
		<layer id="246" name="534/Unsqueeze" type="Const" version="opset1">
			<data element_type="i64" offset="1081416" shape="1" size="8"/>
			<output>
				<port id="0" names="534" precision="I64">
					<dim>1</dim>
				</port>
			</output>
		</layer>
		<layer id="247" name="535" type="Concat" version="opset1">
			<data axis="0"/>
			<input>
				<port id="0" precision="I64">
					<dim>1</dim>
				</port>
				<port id="1" precision="I64">
					<dim>1</dim>
				</port>
				<port id="2" precision="I64">
					<dim>1</dim>
				</port>
			</input>
			<output>
				<port id="3" names="535" precision="I64">
					<dim>3</dim>
				</port>
			</output>
		</layer>
		<layer id="248" name="536" type="Reshape" version="opset1">
			<data special_zero="true"/>
			<input>
				<port id="0" precision="FP32">
					<dim>8</dim>
					<dim>16</dim>
					<dim>64</dim>
				</port>
				<port id="1" precision="I64">
					<dim>3</dim>
				</port>
			</input>
			<output>
				<port id="2" names="536" precision="FP32">
					<dim>8</dim>
					<dim>16</dim>
					<dim>64</dim>
				</port>
			</output>
		</layer>
		<layer id="249" name="562" type="MatMul" version="opset1">
			<data transpose_a="false" transpose_b="false"/>
			<input>
				<port id="0" precision="FP32">
					<dim>8</dim>
					<dim>16</dim>
					<dim>16</dim>
				</port>
				<port id="1" precision="FP32">
					<dim>8</dim>
					<dim>16</dim>
					<dim>64</dim>
				</port>
			</input>
			<output>
				<port id="2" names="562" precision="FP32">
					<dim>8</dim>
					<dim>16</dim>
					<dim>64</dim>
				</port>
			</output>
		</layer>
		<layer id="250" name="563/VariadicSplit_input_port_1/value" type="Const" version="opset1">
			<data element_type="i64" offset="32832" shape="" size="8"/>
			<output>
				<port id="0" precision="I64"/>
			</output>
		</layer>
		<layer id="251" name="563/VariadicSplit_input_port_2/value" type="Const" version="opset1">
			<data element_type="i64" offset="3178872" shape="8" size="64"/>
			<output>
				<port id="0" precision="I64">
					<dim>8</dim>
				</port>
			</output>
		</layer>
		<layer id="252" name="563/VariadicSplit" type="VariadicSplit" version="opset1">
			<input>
				<port id="0" precision="FP32">
					<dim>8</dim>
					<dim>16</dim>
					<dim>64</dim>
				</port>
				<port id="1" precision="I64"/>
				<port id="2" precision="I64">
					<dim>8</dim>
				</port>
			</input>
			<output>
				<port id="3" names="563" precision="FP32">
					<dim>1</dim>
					<dim>16</dim>
					<dim>64</dim>
				</port>
				<port id="4" names="564" precision="FP32">
					<dim>1</dim>
					<dim>16</dim>
					<dim>64</dim>
				</port>
				<port id="5" names="565" precision="FP32">
					<dim>1</dim>
					<dim>16</dim>
					<dim>64</dim>
				</port>
				<port id="6" names="566" precision="FP32">
					<dim>1</dim>
					<dim>16</dim>
					<dim>64</dim>
				</port>
				<port id="7" names="567" precision="FP32">
					<dim>1</dim>
					<dim>16</dim>
					<dim>64</dim>
				</port>
				<port id="8" names="568" precision="FP32">
					<dim>1</dim>
					<dim>16</dim>
					<dim>64</dim>
				</port>
				<port id="9" names="569" precision="FP32">
					<dim>1</dim>
					<dim>16</dim>
					<dim>64</dim>
				</port>
				<port id="10" names="570" precision="FP32">
					<dim>1</dim>
					<dim>16</dim>
					<dim>64</dim>
				</port>
			</output>
		</layer>
		<layer id="253" name="571" type="Concat" version="opset1">
			<data axis="2"/>
			<input>
				<port id="0" precision="FP32">
					<dim>1</dim>
					<dim>16</dim>
					<dim>64</dim>
				</port>
				<port id="1" precision="FP32">
					<dim>1</dim>
					<dim>16</dim>
					<dim>64</dim>
				</port>
				<port id="2" precision="FP32">
					<dim>1</dim>
					<dim>16</dim>
					<dim>64</dim>
				</port>
				<port id="3" precision="FP32">
					<dim>1</dim>
					<dim>16</dim>
					<dim>64</dim>
				</port>
				<port id="4" precision="FP32">
					<dim>1</dim>
					<dim>16</dim>
					<dim>64</dim>
				</port>
				<port id="5" precision="FP32">
					<dim>1</dim>
					<dim>16</dim>
					<dim>64</dim>
				</port>
				<port id="6" precision="FP32">
					<dim>1</dim>
					<dim>16</dim>
					<dim>64</dim>
				</port>
				<port id="7" precision="FP32">
					<dim>1</dim>
					<dim>16</dim>
					<dim>64</dim>
				</port>
			</input>
			<output>
				<port id="8" names="571,572" precision="FP32">
					<dim>1</dim>
					<dim>16</dim>
					<dim>512</dim>
				</port>
			</output>
		</layer>
		<layer id="254" name="574" type="Add" version="opset1">
			<data auto_broadcast="numpy"/>
			<input>
				<port id="0" precision="FP32">
					<dim>1</dim>
					<dim>16</dim>
					<dim>512</dim>
				</port>
				<port id="1" precision="FP32">
					<dim>1</dim>
					<dim>16</dim>
					<dim>512</dim>
				</port>
			</input>
			<output>
				<port id="2" names="574" precision="FP32">
					<dim>1</dim>
					<dim>16</dim>
					<dim>512</dim>
				</port>
			</output>
		</layer>
		<layer id="255" name="784" type="Const" version="opset1">
			<data element_type="i64" offset="2130000" shape="3" size="24"/>
			<output>
				<port id="0" precision="I64">
					<dim>3</dim>
				</port>
			</output>
		</layer>
		<layer id="256" name="575" type="Transpose" version="opset1">
			<input>
				<port id="0" precision="FP32">
					<dim>1</dim>
					<dim>16</dim>
					<dim>512</dim>
				</port>
				<port id="1" precision="I64">
					<dim>3</dim>
				</port>
			</input>
			<output>
				<port id="2" names="575" precision="FP32">
					<dim>1</dim>
					<dim>512</dim>
					<dim>16</dim>
				</port>
			</output>
		</layer>
		<layer id="257" name="332" type="Const" version="opset1">
			<data element_type="f32" offset="10525112" shape="1024, 512, 1" size="2097152"/>
			<output>
				<port id="0" names="332" precision="FP32">
					<dim>1024</dim>
					<dim>512</dim>
					<dim>1</dim>
				</port>
			</output>
		</layer>
		<layer id="258" name="576/WithoutBiases" type="Convolution" version="opset1">
			<data auto_pad="explicit" dilations="1" pads_begin="0" pads_end="0" strides="1"/>
			<input>
				<port id="0" precision="FP32">
					<dim>1</dim>
					<dim>512</dim>
					<dim>16</dim>
				</port>
				<port id="1" precision="FP32">
					<dim>1024</dim>
					<dim>512</dim>
					<dim>1</dim>
				</port>
			</input>
			<output>
				<port id="2" precision="FP32">
					<dim>1</dim>
					<dim>1024</dim>
					<dim>16</dim>
				</port>
			</output>
		</layer>
		<layer id="259" name="576/Dims5499" type="Const" version="opset1">
			<data element_type="f32" offset="12622264" shape="1, 1024, 1" size="4096"/>
			<output>
				<port id="0" precision="FP32">
					<dim>1</dim>
					<dim>1024</dim>
					<dim>1</dim>
				</port>
			</output>
		</layer>
		<layer id="260" name="576" type="Add" version="opset1">
			<data auto_broadcast="numpy"/>
			<input>
				<port id="0" precision="FP32">
					<dim>1</dim>
					<dim>1024</dim>
					<dim>16</dim>
				</port>
				<port id="1" precision="FP32">
					<dim>1</dim>
					<dim>1024</dim>
					<dim>1</dim>
				</port>
			</input>
			<output>
				<port id="2" names="576" precision="FP32">
					<dim>1</dim>
					<dim>1024</dim>
					<dim>16</dim>
				</port>
			</output>
		</layer>
		<layer id="261" name="577" type="ReLU" version="opset1">
			<input>
				<port id="0" precision="FP32">
					<dim>1</dim>
					<dim>1024</dim>
					<dim>16</dim>
				</port>
			</input>
			<output>
				<port id="1" names="577" precision="FP32">
					<dim>1</dim>
					<dim>1024</dim>
					<dim>16</dim>
				</port>
			</output>
		</layer>
		<layer id="262" name="334" type="Const" version="opset1">
			<data element_type="f32" offset="12626360" shape="512, 1024, 1" size="2097152"/>
			<output>
				<port id="0" names="334" precision="FP32">
					<dim>512</dim>
					<dim>1024</dim>
					<dim>1</dim>
				</port>
			</output>
		</layer>
		<layer id="263" name="578/WithoutBiases" type="Convolution" version="opset1">
			<data auto_pad="explicit" dilations="1" pads_begin="0" pads_end="0" strides="1"/>
			<input>
				<port id="0" precision="FP32">
					<dim>1</dim>
					<dim>1024</dim>
					<dim>16</dim>
				</port>
				<port id="1" precision="FP32">
					<dim>512</dim>
					<dim>1024</dim>
					<dim>1</dim>
				</port>
			</input>
			<output>
				<port id="2" precision="FP32">
					<dim>1</dim>
					<dim>512</dim>
					<dim>16</dim>
				</port>
			</output>
		</layer>
		<layer id="264" name="578/Dims5529" type="Const" version="opset1">
			<data element_type="f32" offset="14723512" shape="1, 512, 1" size="2048"/>
			<output>
				<port id="0" precision="FP32">
					<dim>1</dim>
					<dim>512</dim>
					<dim>1</dim>
				</port>
			</output>
		</layer>
		<layer id="265" name="578" type="Add" version="opset1">
			<data auto_broadcast="numpy"/>
			<input>
				<port id="0" precision="FP32">
					<dim>1</dim>
					<dim>512</dim>
					<dim>16</dim>
				</port>
				<port id="1" precision="FP32">
					<dim>1</dim>
					<dim>512</dim>
					<dim>1</dim>
				</port>
			</input>
			<output>
				<port id="2" names="578" precision="FP32">
					<dim>1</dim>
					<dim>512</dim>
					<dim>16</dim>
				</port>
			</output>
		</layer>
		<layer id="266" name="786" type="Const" version="opset1">
			<data element_type="i64" offset="2130000" shape="3" size="24"/>
			<output>
				<port id="0" precision="I64">
					<dim>3</dim>
				</port>
			</output>
		</layer>
		<layer id="267" name="579" type="Transpose" version="opset1">
			<input>
				<port id="0" precision="FP32">
					<dim>1</dim>
					<dim>512</dim>
					<dim>16</dim>
				</port>
				<port id="1" precision="I64">
					<dim>3</dim>
				</port>
			</input>
			<output>
				<port id="2" names="579,580" precision="FP32">
					<dim>1</dim>
					<dim>16</dim>
					<dim>512</dim>
				</port>
			</output>
		</layer>
		<layer id="268" name="582" type="Add" version="opset1">
			<data auto_broadcast="numpy"/>
			<input>
				<port id="0" precision="FP32">
					<dim>1</dim>
					<dim>16</dim>
					<dim>512</dim>
				</port>
				<port id="1" precision="FP32">
					<dim>1</dim>
					<dim>16</dim>
					<dim>512</dim>
				</port>
			</input>
			<output>
				<port id="2" names="582" precision="FP32">
					<dim>1</dim>
					<dim>16</dim>
					<dim>512</dim>
				</port>
			</output>
		</layer>
		<layer id="269" name="595" type="Const" version="opset1">
			<data element_type="i64" offset="32768" shape="3" size="24"/>
			<output>
				<port id="0" names="595" precision="I64">
					<dim>3</dim>
				</port>
			</output>
		</layer>
		<layer id="270" name="596" type="Tile" version="opset1">
			<input>
				<port id="0" precision="FP32">
					<dim>1</dim>
					<dim>16</dim>
					<dim>512</dim>
				</port>
				<port id="1" precision="I64">
					<dim>3</dim>
				</port>
			</input>
			<output>
				<port id="2" names="596" precision="FP32">
					<dim>8</dim>
					<dim>16</dim>
					<dim>512</dim>
				</port>
			</output>
		</layer>
		<layer id="271" name="599/Unsqueeze" type="Const" version="opset1">
			<data element_type="i64" offset="32792" shape="1" size="8"/>
			<output>
				<port id="0" names="599" precision="I64">
					<dim>1</dim>
				</port>
			</output>
		</layer>
		<layer id="272" name="600/Unsqueeze" type="Const" version="opset1">
			<data element_type="i64" offset="32800" shape="1" size="8"/>
			<output>
				<port id="0" names="600" precision="I64">
					<dim>1</dim>
				</port>
			</output>
		</layer>
		<layer id="273" name="592" type="ShapeOf" version="opset3">
			<data output_type="i64"/>
			<input>
				<port id="0" precision="FP32">
					<dim>1</dim>
					<dim>16</dim>
					<dim>512</dim>
				</port>
			</input>
			<output>
				<port id="1" names="592" precision="I64">
					<dim>3</dim>
				</port>
			</output>
		</layer>
		<layer id="274" name="593/Concat589420893" type="Const" version="opset1">
			<data element_type="i64" offset="32808" shape="1" size="8"/>
			<output>
				<port id="0" precision="I64">
					<dim>1</dim>
				</port>
			</output>
		</layer>
		<layer id="275" name="593/Concat5884589520821" type="Const" version="opset1">
			<data element_type="i64" offset="32816" shape="1" size="8"/>
			<output>
				<port id="0" precision="I64">
					<dim>1</dim>
				</port>
			</output>
		</layer>
		<layer id="276" name="593/Strides589620971" type="Const" version="opset1">
			<data element_type="i64" offset="32824" shape="1" size="8"/>
			<output>
				<port id="0" precision="I64">
					<dim>1</dim>
				</port>
			</output>
		</layer>
		<layer id="277" name="593" type="StridedSlice" version="opset1">
			<data begin_mask="0" ellipsis_mask="0" end_mask="0" new_axis_mask="0" shrink_axis_mask="0"/>
			<input>
				<port id="0" precision="I64">
					<dim>3</dim>
				</port>
				<port id="1" precision="I64">
					<dim>1</dim>
				</port>
				<port id="2" precision="I64">
					<dim>1</dim>
				</port>
				<port id="3" precision="I64">
					<dim>1</dim>
				</port>
			</input>
			<output>
				<port id="4" names="593" precision="I64">
					<dim>1</dim>
				</port>
			</output>
		</layer>
		<layer id="278" name="594/Dims" type="Const" version="opset1">
			<data element_type="i64" offset="32832" shape="1" size="8"/>
			<output>
				<port id="0" precision="I64">
					<dim>1</dim>
				</port>
			</output>
		</layer>
		<layer id="279" name="594" type="Squeeze" version="opset1">
			<input>
				<port id="0" precision="I64">
					<dim>1</dim>
				</port>
				<port id="1" precision="I64">
					<dim>1</dim>
				</port>
			</input>
			<output>
				<port id="2" names="594" precision="I64"/>
			</output>
		</layer>
		<layer id="280" name="601/Dims" type="Const" version="opset1">
			<data element_type="i64" offset="32832" shape="1" size="8"/>
			<output>
				<port id="0" precision="I64">
					<dim>1</dim>
				</port>
			</output>
		</layer>
		<layer id="281" name="601/Unsqueeze" type="Unsqueeze" version="opset1">
			<input>
				<port id="0" precision="I64"/>
				<port id="1" precision="I64">
					<dim>1</dim>
				</port>
			</input>
			<output>
				<port id="2" names="601" precision="I64">
					<dim>1</dim>
				</port>
			</output>
		</layer>
		<layer id="282" name="602" type="Concat" version="opset1">
			<data axis="0"/>
			<input>
				<port id="0" precision="I64">
					<dim>1</dim>
				</port>
				<port id="1" precision="I64">
					<dim>1</dim>
				</port>
				<port id="2" precision="I64">
					<dim>1</dim>
				</port>
			</input>
			<output>
				<port id="3" names="602" precision="I64">
					<dim>3</dim>
				</port>
			</output>
		</layer>
		<layer id="283" name="603" type="Reshape" version="opset1">
			<data special_zero="true"/>
			<input>
				<port id="0" precision="FP32">
					<dim>8</dim>
					<dim>16</dim>
					<dim>512</dim>
				</port>
				<port id="1" precision="I64">
					<dim>3</dim>
				</port>
			</input>
			<output>
				<port id="2" names="603" precision="FP32">
					<dim>8</dim>
					<dim>16</dim>
					<dim>512</dim>
				</port>
			</output>
		</layer>
		<layer id="284" name="338" type="Const" version="opset1">
			<data element_type="f32" offset="14725560" shape="8, 512, 64" size="1048576"/>
			<output>
				<port id="0" names="338" precision="FP32">
					<dim>8</dim>
					<dim>512</dim>
					<dim>64</dim>
				</port>
			</output>
		</layer>
		<layer id="285" name="622" type="MatMul" version="opset1">
			<data transpose_a="false" transpose_b="false"/>
			<input>
				<port id="0" precision="FP32">
					<dim>8</dim>
					<dim>16</dim>
					<dim>512</dim>
				</port>
				<port id="1" precision="FP32">
					<dim>8</dim>
					<dim>512</dim>
					<dim>64</dim>
				</port>
			</input>
			<output>
				<port id="2" names="622" precision="FP32">
					<dim>8</dim>
					<dim>16</dim>
					<dim>64</dim>
				</port>
			</output>
		</layer>
		<layer id="286" name="625/Unsqueeze" type="Const" version="opset1">
			<data element_type="i64" offset="32800" shape="1" size="8"/>
			<output>
				<port id="0" names="625" precision="I64">
					<dim>1</dim>
				</port>
			</output>
		</layer>
		<layer id="287" name="583" type="ShapeOf" version="opset3">
			<data output_type="i64"/>
			<input>
				<port id="0" precision="FP32">
					<dim>1</dim>
					<dim>16</dim>
					<dim>512</dim>
				</port>
			</input>
			<output>
				<port id="1" names="583" precision="I64">
					<dim>3</dim>
				</port>
			</output>
		</layer>
		<layer id="288" name="584/Concat650620665" type="Const" version="opset1">
			<data element_type="i64" offset="32824" shape="1" size="8"/>
			<output>
				<port id="0" precision="I64">
					<dim>1</dim>
				</port>
			</output>
		</layer>
		<layer id="289" name="584/Concat6496650720482" type="Const" version="opset1">
			<data element_type="i64" offset="32808" shape="1" size="8"/>
			<output>
				<port id="0" precision="I64">
					<dim>1</dim>
				</port>
			</output>
		</layer>
		<layer id="290" name="584/Strides650820995" type="Const" version="opset1">
			<data element_type="i64" offset="32824" shape="1" size="8"/>
			<output>
				<port id="0" precision="I64">
					<dim>1</dim>
				</port>
			</output>
		</layer>
		<layer id="291" name="584" type="StridedSlice" version="opset1">
			<data begin_mask="0" ellipsis_mask="0" end_mask="0" new_axis_mask="0" shrink_axis_mask="0"/>
			<input>
				<port id="0" precision="I64">
					<dim>3</dim>
				</port>
				<port id="1" precision="I64">
					<dim>1</dim>
				</port>
				<port id="2" precision="I64">
					<dim>1</dim>
				</port>
				<port id="3" precision="I64">
					<dim>1</dim>
				</port>
			</input>
			<output>
				<port id="4" names="584" precision="I64">
					<dim>1</dim>
				</port>
			</output>
		</layer>
		<layer id="292" name="585/Dims" type="Const" version="opset1">
			<data element_type="i64" offset="32832" shape="1" size="8"/>
			<output>
				<port id="0" precision="I64">
					<dim>1</dim>
				</port>
			</output>
		</layer>
		<layer id="293" name="585" type="Squeeze" version="opset1">
			<input>
				<port id="0" precision="I64">
					<dim>1</dim>
				</port>
				<port id="1" precision="I64">
					<dim>1</dim>
				</port>
			</input>
			<output>
				<port id="2" names="585" precision="I64"/>
			</output>
		</layer>
		<layer id="294" name="626/Dims" type="Const" version="opset1">
			<data element_type="i64" offset="32832" shape="1" size="8"/>
			<output>
				<port id="0" precision="I64">
					<dim>1</dim>
				</port>
			</output>
		</layer>
		<layer id="295" name="626/Unsqueeze" type="Unsqueeze" version="opset1">
			<input>
				<port id="0" precision="I64"/>
				<port id="1" precision="I64">
					<dim>1</dim>
				</port>
			</input>
			<output>
				<port id="2" names="626" precision="I64">
					<dim>1</dim>
				</port>
			</output>
		</layer>
		<layer id="296" name="627/Unsqueeze" type="Const" version="opset1">
			<data element_type="i64" offset="1081416" shape="1" size="8"/>
			<output>
				<port id="0" names="627" precision="I64">
					<dim>1</dim>
				</port>
			</output>
		</layer>
		<layer id="297" name="628" type="Concat" version="opset1">
			<data axis="0"/>
			<input>
				<port id="0" precision="I64">
					<dim>1</dim>
				</port>
				<port id="1" precision="I64">
					<dim>1</dim>
				</port>
				<port id="2" precision="I64">
					<dim>1</dim>
				</port>
			</input>
			<output>
				<port id="3" names="628" precision="I64">
					<dim>3</dim>
				</port>
			</output>
		</layer>
		<layer id="298" name="629" type="Reshape" version="opset1">
			<data special_zero="true"/>
			<input>
				<port id="0" precision="FP32">
					<dim>8</dim>
					<dim>16</dim>
					<dim>64</dim>
				</port>
				<port id="1" precision="I64">
					<dim>3</dim>
				</port>
			</input>
			<output>
				<port id="2" names="629" precision="FP32">
					<dim>8</dim>
					<dim>16</dim>
					<dim>64</dim>
				</port>
			</output>
		</layer>
		<layer id="299" name="604" type="Const" version="opset1">
			<data element_type="i64" offset="32768" shape="3" size="24"/>
			<output>
				<port id="0" names="604" precision="I64">
					<dim>3</dim>
				</port>
			</output>
		</layer>
		<layer id="300" name="605" type="Tile" version="opset1">
			<input>
				<port id="0" precision="FP32">
					<dim>1</dim>
					<dim>16</dim>
					<dim>512</dim>
				</port>
				<port id="1" precision="I64">
					<dim>3</dim>
				</port>
			</input>
			<output>
				<port id="2" names="605" precision="FP32">
					<dim>8</dim>
					<dim>16</dim>
					<dim>512</dim>
				</port>
			</output>
		</layer>
		<layer id="301" name="608/Unsqueeze" type="Const" version="opset1">
			<data element_type="i64" offset="32792" shape="1" size="8"/>
			<output>
				<port id="0" names="608" precision="I64">
					<dim>1</dim>
				</port>
			</output>
		</layer>
		<layer id="302" name="609/Unsqueeze" type="Const" version="opset1">
			<data element_type="i64" offset="32800" shape="1" size="8"/>
			<output>
				<port id="0" names="609" precision="I64">
					<dim>1</dim>
				</port>
			</output>
		</layer>
		<layer id="303" name="610/Dims" type="Const" version="opset1">
			<data element_type="i64" offset="32832" shape="1" size="8"/>
			<output>
				<port id="0" precision="I64">
					<dim>1</dim>
				</port>
			</output>
		</layer>
		<layer id="304" name="610/Unsqueeze" type="Unsqueeze" version="opset1">
			<input>
				<port id="0" precision="I64"/>
				<port id="1" precision="I64">
					<dim>1</dim>
				</port>
			</input>
			<output>
				<port id="2" names="610" precision="I64">
					<dim>1</dim>
				</port>
			</output>
		</layer>
		<layer id="305" name="611" type="Concat" version="opset1">
			<data axis="0"/>
			<input>
				<port id="0" precision="I64">
					<dim>1</dim>
				</port>
				<port id="1" precision="I64">
					<dim>1</dim>
				</port>
				<port id="2" precision="I64">
					<dim>1</dim>
				</port>
			</input>
			<output>
				<port id="3" names="611" precision="I64">
					<dim>3</dim>
				</port>
			</output>
		</layer>
		<layer id="306" name="612" type="Reshape" version="opset1">
			<data special_zero="true"/>
			<input>
				<port id="0" precision="FP32">
					<dim>8</dim>
					<dim>16</dim>
					<dim>512</dim>
				</port>
				<port id="1" precision="I64">
					<dim>3</dim>
				</port>
			</input>
			<output>
				<port id="2" names="612" precision="FP32">
					<dim>8</dim>
					<dim>16</dim>
					<dim>512</dim>
				</port>
			</output>
		</layer>
		<layer id="307" name="339" type="Const" version="opset1">
			<data element_type="f32" offset="15774136" shape="8, 512, 64" size="1048576"/>
			<output>
				<port id="0" names="339" precision="FP32">
					<dim>8</dim>
					<dim>512</dim>
					<dim>64</dim>
				</port>
			</output>
		</layer>
		<layer id="308" name="630" type="MatMul" version="opset1">
			<data transpose_a="false" transpose_b="false"/>
			<input>
				<port id="0" precision="FP32">
					<dim>8</dim>
					<dim>16</dim>
					<dim>512</dim>
				</port>
				<port id="1" precision="FP32">
					<dim>8</dim>
					<dim>512</dim>
					<dim>64</dim>
				</port>
			</input>
			<output>
				<port id="2" names="630" precision="FP32">
					<dim>8</dim>
					<dim>16</dim>
					<dim>64</dim>
				</port>
			</output>
		</layer>
		<layer id="309" name="633/Unsqueeze" type="Const" version="opset1">
			<data element_type="i64" offset="32800" shape="1" size="8"/>
			<output>
				<port id="0" names="633" precision="I64">
					<dim>1</dim>
				</port>
			</output>
		</layer>
		<layer id="310" name="586" type="ShapeOf" version="opset3">
			<data output_type="i64"/>
			<input>
				<port id="0" precision="FP32">
					<dim>1</dim>
					<dim>16</dim>
					<dim>512</dim>
				</port>
			</input>
			<output>
				<port id="1" names="586" precision="I64">
					<dim>3</dim>
				</port>
			</output>
		</layer>
		<layer id="311" name="587/Concat618220437" type="Const" version="opset1">
			<data element_type="i64" offset="32824" shape="1" size="8"/>
			<output>
				<port id="0" precision="I64">
					<dim>1</dim>
				</port>
			</output>
		</layer>
		<layer id="312" name="587/Concat6172618320545" type="Const" version="opset1">
			<data element_type="i64" offset="32808" shape="1" size="8"/>
			<output>
				<port id="0" precision="I64">
					<dim>1</dim>
				</port>
			</output>
		</layer>
		<layer id="313" name="587/Strides618420899" type="Const" version="opset1">
			<data element_type="i64" offset="32824" shape="1" size="8"/>
			<output>
				<port id="0" precision="I64">
					<dim>1</dim>
				</port>
			</output>
		</layer>
		<layer id="314" name="587" type="StridedSlice" version="opset1">
			<data begin_mask="0" ellipsis_mask="0" end_mask="0" new_axis_mask="0" shrink_axis_mask="0"/>
			<input>
				<port id="0" precision="I64">
					<dim>3</dim>
				</port>
				<port id="1" precision="I64">
					<dim>1</dim>
				</port>
				<port id="2" precision="I64">
					<dim>1</dim>
				</port>
				<port id="3" precision="I64">
					<dim>1</dim>
				</port>
			</input>
			<output>
				<port id="4" names="587" precision="I64">
					<dim>1</dim>
				</port>
			</output>
		</layer>
		<layer id="315" name="588/Dims" type="Const" version="opset1">
			<data element_type="i64" offset="32832" shape="1" size="8"/>
			<output>
				<port id="0" precision="I64">
					<dim>1</dim>
				</port>
			</output>
		</layer>
		<layer id="316" name="588" type="Squeeze" version="opset1">
			<input>
				<port id="0" precision="I64">
					<dim>1</dim>
				</port>
				<port id="1" precision="I64">
					<dim>1</dim>
				</port>
			</input>
			<output>
				<port id="2" names="588" precision="I64"/>
			</output>
		</layer>
		<layer id="317" name="634/Dims" type="Const" version="opset1">
			<data element_type="i64" offset="32832" shape="1" size="8"/>
			<output>
				<port id="0" precision="I64">
					<dim>1</dim>
				</port>
			</output>
		</layer>
		<layer id="318" name="634/Unsqueeze" type="Unsqueeze" version="opset1">
			<input>
				<port id="0" precision="I64"/>
				<port id="1" precision="I64">
					<dim>1</dim>
				</port>
			</input>
			<output>
				<port id="2" names="634" precision="I64">
					<dim>1</dim>
				</port>
			</output>
		</layer>
		<layer id="319" name="635/Unsqueeze" type="Const" version="opset1">
			<data element_type="i64" offset="1081416" shape="1" size="8"/>
			<output>
				<port id="0" names="635" precision="I64">
					<dim>1</dim>
				</port>
			</output>
		</layer>
		<layer id="320" name="636" type="Concat" version="opset1">
			<data axis="0"/>
			<input>
				<port id="0" precision="I64">
					<dim>1</dim>
				</port>
				<port id="1" precision="I64">
					<dim>1</dim>
				</port>
				<port id="2" precision="I64">
					<dim>1</dim>
				</port>
			</input>
			<output>
				<port id="3" names="636" precision="I64">
					<dim>3</dim>
				</port>
			</output>
		</layer>
		<layer id="321" name="637" type="Reshape" version="opset1">
			<data special_zero="true"/>
			<input>
				<port id="0" precision="FP32">
					<dim>8</dim>
					<dim>16</dim>
					<dim>64</dim>
				</port>
				<port id="1" precision="I64">
					<dim>3</dim>
				</port>
			</input>
			<output>
				<port id="2" names="637" precision="FP32">
					<dim>8</dim>
					<dim>16</dim>
					<dim>64</dim>
				</port>
			</output>
		</layer>
		<layer id="322" name="782" type="Const" version="opset1">
			<data element_type="i64" offset="2130000" shape="3" size="24"/>
			<output>
				<port id="0" precision="I64">
					<dim>3</dim>
				</port>
			</output>
		</layer>
		<layer id="323" name="646" type="Transpose" version="opset1">
			<input>
				<port id="0" precision="FP32">
					<dim>8</dim>
					<dim>16</dim>
					<dim>64</dim>
				</port>
				<port id="1" precision="I64">
					<dim>3</dim>
				</port>
			</input>
			<output>
				<port id="2" precision="FP32">
					<dim>8</dim>
					<dim>64</dim>
					<dim>16</dim>
				</port>
			</output>
		</layer>
		<layer id="324" name="649_copy/const9866" type="Const" version="opset1">
			<data element_type="f32" offset="2130024" shape="1, 64, 1" size="256"/>
			<output>
				<port id="0" precision="FP32">
					<dim>1</dim>
					<dim>64</dim>
					<dim>1</dim>
				</port>
			</output>
		</layer>
		<layer id="325" name="649_copy" type="Multiply" version="opset1">
			<data auto_broadcast="numpy"/>
			<input>
				<port id="0" precision="FP32">
					<dim>8</dim>
					<dim>64</dim>
					<dim>16</dim>
				</port>
				<port id="1" precision="FP32">
					<dim>1</dim>
					<dim>64</dim>
					<dim>1</dim>
				</port>
			</input>
			<output>
				<port id="2" names="646" precision="FP32">
					<dim>8</dim>
					<dim>64</dim>
					<dim>16</dim>
				</port>
			</output>
		</layer>
		<layer id="326" name="647" type="MatMul" version="opset1">
			<data transpose_a="false" transpose_b="false"/>
			<input>
				<port id="0" precision="FP32">
					<dim>8</dim>
					<dim>16</dim>
					<dim>64</dim>
				</port>
				<port id="1" precision="FP32">
					<dim>8</dim>
					<dim>64</dim>
					<dim>16</dim>
				</port>
			</input>
			<output>
				<port id="2" names="649" precision="FP32">
					<dim>8</dim>
					<dim>16</dim>
					<dim>16</dim>
				</port>
			</output>
		</layer>
		<layer id="327" name="650" type="ShapeOf" version="opset3">
			<data output_type="i64"/>
			<input>
				<port id="0" precision="FP32">
					<dim>8</dim>
					<dim>16</dim>
					<dim>16</dim>
				</port>
			</input>
			<output>
				<port id="1" names="650" precision="I64">
					<dim>3</dim>
				</port>
			</output>
		</layer>
		<layer id="328" name="651/Concat639820833" type="Const" version="opset1">
			<data element_type="i64" offset="32832" shape="1" size="8"/>
			<output>
				<port id="0" precision="I64">
					<dim>1</dim>
				</port>
			</output>
		</layer>
		<layer id="329" name="651/Concat6388639920809" type="Const" version="opset1">
			<data element_type="i64" offset="32824" shape="1" size="8"/>
			<output>
				<port id="0" precision="I64">
					<dim>1</dim>
				</port>
			</output>
		</layer>
		<layer id="330" name="651/Strides640020929" type="Const" version="opset1">
			<data element_type="i64" offset="32824" shape="1" size="8"/>
			<output>
				<port id="0" precision="I64">
					<dim>1</dim>
				</port>
			</output>
		</layer>
		<layer id="331" name="651" type="StridedSlice" version="opset1">
			<data begin_mask="0" ellipsis_mask="0" end_mask="0" new_axis_mask="0" shrink_axis_mask="0"/>
			<input>
				<port id="0" precision="I64">
					<dim>3</dim>
				</port>
				<port id="1" precision="I64">
					<dim>1</dim>
				</port>
				<port id="2" precision="I64">
					<dim>1</dim>
				</port>
				<port id="3" precision="I64">
					<dim>1</dim>
				</port>
			</input>
			<output>
				<port id="4" names="651" precision="I64">
					<dim>1</dim>
				</port>
			</output>
		</layer>
		<layer id="332" name="652/Dims" type="Const" version="opset1">
			<data element_type="i64" offset="32832" shape="1" size="8"/>
			<output>
				<port id="0" precision="I64">
					<dim>1</dim>
				</port>
			</output>
		</layer>
		<layer id="333" name="652" type="Squeeze" version="opset1">
			<input>
				<port id="0" precision="I64">
					<dim>1</dim>
				</port>
				<port id="1" precision="I64">
					<dim>1</dim>
				</port>
			</input>
			<output>
				<port id="2" names="652" precision="I64"/>
			</output>
		</layer>
		<layer id="334" name="653" type="ShapeOf" version="opset3">
			<data output_type="i64"/>
			<input>
				<port id="0" precision="FP32">
					<dim>8</dim>
					<dim>16</dim>
					<dim>16</dim>
				</port>
			</input>
			<output>
				<port id="1" names="653" precision="I64">
					<dim>3</dim>
				</port>
			</output>
		</layer>
		<layer id="335" name="654/Concat607420503" type="Const" version="opset1">
			<data element_type="i64" offset="32824" shape="1" size="8"/>
			<output>
				<port id="0" precision="I64">
					<dim>1</dim>
				</port>
			</output>
		</layer>
		<layer id="336" name="654/Concat6064607521028" type="Const" version="opset1">
			<data element_type="i64" offset="32808" shape="1" size="8"/>
			<output>
				<port id="0" precision="I64">
					<dim>1</dim>
				</port>
			</output>
		</layer>
		<layer id="337" name="654/Strides607620686" type="Const" version="opset1">
			<data element_type="i64" offset="32824" shape="1" size="8"/>
			<output>
				<port id="0" precision="I64">
					<dim>1</dim>
				</port>
			</output>
		</layer>
		<layer id="338" name="654" type="StridedSlice" version="opset1">
			<data begin_mask="0" ellipsis_mask="0" end_mask="0" new_axis_mask="0" shrink_axis_mask="0"/>
			<input>
				<port id="0" precision="I64">
					<dim>3</dim>
				</port>
				<port id="1" precision="I64">
					<dim>1</dim>
				</port>
				<port id="2" precision="I64">
					<dim>1</dim>
				</port>
				<port id="3" precision="I64">
					<dim>1</dim>
				</port>
			</input>
			<output>
				<port id="4" names="654" precision="I64">
					<dim>1</dim>
				</port>
			</output>
		</layer>
		<layer id="339" name="655/Dims" type="Const" version="opset1">
			<data element_type="i64" offset="32832" shape="1" size="8"/>
			<output>
				<port id="0" precision="I64">
					<dim>1</dim>
				</port>
			</output>
		</layer>
		<layer id="340" name="655" type="Squeeze" version="opset1">
			<input>
				<port id="0" precision="I64">
					<dim>1</dim>
				</port>
				<port id="1" precision="I64">
					<dim>1</dim>
				</port>
			</input>
			<output>
				<port id="2" names="655" precision="I64"/>
			</output>
		</layer>
		<layer id="341" name="656" type="Multiply" version="opset1">
			<data auto_broadcast="numpy"/>
			<input>
				<port id="0" precision="I64"/>
				<port id="1" precision="I64"/>
			</input>
			<output>
				<port id="2" names="656" precision="I64"/>
			</output>
		</layer>
		<layer id="342" name="658/Dims" type="Const" version="opset1">
			<data element_type="i64" offset="32832" shape="1" size="8"/>
			<output>
				<port id="0" precision="I64">
					<dim>1</dim>
				</port>
			</output>
		</layer>
		<layer id="343" name="658/Unsqueeze" type="Unsqueeze" version="opset1">
			<input>
				<port id="0" precision="I64"/>
				<port id="1" precision="I64">
					<dim>1</dim>
				</port>
			</input>
			<output>
				<port id="2" names="658" precision="I64">
					<dim>1</dim>
				</port>
			</output>
		</layer>
		<layer id="344" name="659/Unsqueeze" type="Const" version="opset1">
			<data element_type="i64" offset="32800" shape="1" size="8"/>
			<output>
				<port id="0" names="659" precision="I64">
					<dim>1</dim>
				</port>
			</output>
		</layer>
		<layer id="345" name="660" type="Concat" version="opset1">
			<data axis="0"/>
			<input>
				<port id="0" precision="I64">
					<dim>1</dim>
				</port>
				<port id="1" precision="I64">
					<dim>1</dim>
				</port>
			</input>
			<output>
				<port id="2" names="660" precision="I64">
					<dim>2</dim>
				</port>
			</output>
		</layer>
		<layer id="346" name="661" type="Reshape" version="opset1">
			<data special_zero="true"/>
			<input>
				<port id="0" precision="FP32">
					<dim>8</dim>
					<dim>16</dim>
					<dim>16</dim>
				</port>
				<port id="1" precision="I64">
					<dim>2</dim>
				</port>
			</input>
			<output>
				<port id="2" names="661" precision="FP32">
					<dim>128</dim>
					<dim>16</dim>
				</port>
			</output>
		</layer>
		<layer id="347" name="662/FlattenONNX_/Reshape/shape" type="Const" version="opset1">
			<data element_type="i64" offset="2130280" shape="2" size="16"/>
			<output>
				<port id="0" precision="I64">
					<dim>2</dim>
				</port>
			</output>
		</layer>
		<layer id="348" name="662/FlattenONNX_/Reshape" type="Reshape" version="opset1">
			<data special_zero="true"/>
			<input>
				<port id="0" precision="FP32">
					<dim>128</dim>
					<dim>16</dim>
				</port>
				<port id="1" precision="I64">
					<dim>2</dim>
				</port>
			</input>
			<output>
				<port id="2" precision="FP32">
					<dim>128</dim>
					<dim>16</dim>
				</port>
			</output>
		</layer>
		<layer id="349" name="662/Softmax_" type="SoftMax" version="opset1">
			<data axis="1"/>
			<input>
				<port id="0" precision="FP32">
					<dim>128</dim>
					<dim>16</dim>
				</port>
			</input>
			<output>
				<port id="1" precision="FP32">
					<dim>128</dim>
					<dim>16</dim>
				</port>
			</output>
		</layer>
		<layer id="350" name="662/ShapeOf_" type="ShapeOf" version="opset3">
			<data output_type="i64"/>
			<input>
				<port id="0" precision="FP32">
					<dim>128</dim>
					<dim>16</dim>
				</port>
			</input>
			<output>
				<port id="1" precision="I64">
					<dim>2</dim>
				</port>
			</output>
		</layer>
		<layer id="351" name="662" type="Reshape" version="opset1">
			<data special_zero="true"/>
			<input>
				<port id="0" precision="FP32">
					<dim>128</dim>
					<dim>16</dim>
				</port>
				<port id="1" precision="I64">
					<dim>2</dim>
				</port>
			</input>
			<output>
				<port id="2" names="662" precision="FP32">
					<dim>128</dim>
					<dim>16</dim>
				</port>
			</output>
		</layer>
		<layer id="352" name="664/Dims" type="Const" version="opset1">
			<data element_type="i64" offset="32832" shape="1" size="8"/>
			<output>
				<port id="0" precision="I64">
					<dim>1</dim>
				</port>
			</output>
		</layer>
		<layer id="353" name="664/Unsqueeze" type="Unsqueeze" version="opset1">
			<input>
				<port id="0" precision="I64"/>
				<port id="1" precision="I64">
					<dim>1</dim>
				</port>
			</input>
			<output>
				<port id="2" names="664" precision="I64">
					<dim>1</dim>
				</port>
			</output>
		</layer>
		<layer id="354" name="665/Dims" type="Const" version="opset1">
			<data element_type="i64" offset="32832" shape="1" size="8"/>
			<output>
				<port id="0" precision="I64">
					<dim>1</dim>
				</port>
			</output>
		</layer>
		<layer id="355" name="665/Unsqueeze" type="Unsqueeze" version="opset1">
			<input>
				<port id="0" precision="I64"/>
				<port id="1" precision="I64">
					<dim>1</dim>
				</port>
			</input>
			<output>
				<port id="2" names="665" precision="I64">
					<dim>1</dim>
				</port>
			</output>
		</layer>
		<layer id="356" name="666/Unsqueeze" type="Const" version="opset1">
			<data element_type="i64" offset="32800" shape="1" size="8"/>
			<output>
				<port id="0" names="666" precision="I64">
					<dim>1</dim>
				</port>
			</output>
		</layer>
		<layer id="357" name="667" type="Concat" version="opset1">
			<data axis="0"/>
			<input>
				<port id="0" precision="I64">
					<dim>1</dim>
				</port>
				<port id="1" precision="I64">
					<dim>1</dim>
				</port>
				<port id="2" precision="I64">
					<dim>1</dim>
				</port>
			</input>
			<output>
				<port id="3" names="667" precision="I64">
					<dim>3</dim>
				</port>
			</output>
		</layer>
		<layer id="358" name="668" type="Reshape" version="opset1">
			<data special_zero="true"/>
			<input>
				<port id="0" precision="FP32">
					<dim>128</dim>
					<dim>16</dim>
				</port>
				<port id="1" precision="I64">
					<dim>3</dim>
				</port>
			</input>
			<output>
				<port id="2" names="668,669" precision="FP32">
					<dim>8</dim>
					<dim>16</dim>
					<dim>16</dim>
				</port>
			</output>
		</layer>
		<layer id="359" name="613" type="Const" version="opset1">
			<data element_type="i64" offset="32768" shape="3" size="24"/>
			<output>
				<port id="0" names="613" precision="I64">
					<dim>3</dim>
				</port>
			</output>
		</layer>
		<layer id="360" name="614" type="Tile" version="opset1">
			<input>
				<port id="0" precision="FP32">
					<dim>1</dim>
					<dim>16</dim>
					<dim>512</dim>
				</port>
				<port id="1" precision="I64">
					<dim>3</dim>
				</port>
			</input>
			<output>
				<port id="2" names="614" precision="FP32">
					<dim>8</dim>
					<dim>16</dim>
					<dim>512</dim>
				</port>
			</output>
		</layer>
		<layer id="361" name="617/Unsqueeze" type="Const" version="opset1">
			<data element_type="i64" offset="32792" shape="1" size="8"/>
			<output>
				<port id="0" names="617" precision="I64">
					<dim>1</dim>
				</port>
			</output>
		</layer>
		<layer id="362" name="618/Unsqueeze" type="Const" version="opset1">
			<data element_type="i64" offset="32800" shape="1" size="8"/>
			<output>
				<port id="0" names="618" precision="I64">
					<dim>1</dim>
				</port>
			</output>
		</layer>
		<layer id="363" name="619/Dims" type="Const" version="opset1">
			<data element_type="i64" offset="32832" shape="1" size="8"/>
			<output>
				<port id="0" precision="I64">
					<dim>1</dim>
				</port>
			</output>
		</layer>
		<layer id="364" name="619/Unsqueeze" type="Unsqueeze" version="opset1">
			<input>
				<port id="0" precision="I64"/>
				<port id="1" precision="I64">
					<dim>1</dim>
				</port>
			</input>
			<output>
				<port id="2" names="619" precision="I64">
					<dim>1</dim>
				</port>
			</output>
		</layer>
		<layer id="365" name="620" type="Concat" version="opset1">
			<data axis="0"/>
			<input>
				<port id="0" precision="I64">
					<dim>1</dim>
				</port>
				<port id="1" precision="I64">
					<dim>1</dim>
				</port>
				<port id="2" precision="I64">
					<dim>1</dim>
				</port>
			</input>
			<output>
				<port id="3" names="620" precision="I64">
					<dim>3</dim>
				</port>
			</output>
		</layer>
		<layer id="366" name="621" type="Reshape" version="opset1">
			<data special_zero="true"/>
			<input>
				<port id="0" precision="FP32">
					<dim>8</dim>
					<dim>16</dim>
					<dim>512</dim>
				</port>
				<port id="1" precision="I64">
					<dim>3</dim>
				</port>
			</input>
			<output>
				<port id="2" names="621" precision="FP32">
					<dim>8</dim>
					<dim>16</dim>
					<dim>512</dim>
				</port>
			</output>
		</layer>
		<layer id="367" name="340" type="Const" version="opset1">
			<data element_type="f32" offset="16822712" shape="8, 512, 64" size="1048576"/>
			<output>
				<port id="0" names="340" precision="FP32">
					<dim>8</dim>
					<dim>512</dim>
					<dim>64</dim>
				</port>
			</output>
		</layer>
		<layer id="368" name="638" type="MatMul" version="opset1">
			<data transpose_a="false" transpose_b="false"/>
			<input>
				<port id="0" precision="FP32">
					<dim>8</dim>
					<dim>16</dim>
					<dim>512</dim>
				</port>
				<port id="1" precision="FP32">
					<dim>8</dim>
					<dim>512</dim>
					<dim>64</dim>
				</port>
			</input>
			<output>
				<port id="2" names="638" precision="FP32">
					<dim>8</dim>
					<dim>16</dim>
					<dim>64</dim>
				</port>
			</output>
		</layer>
		<layer id="369" name="641/Unsqueeze" type="Const" version="opset1">
			<data element_type="i64" offset="32800" shape="1" size="8"/>
			<output>
				<port id="0" names="641" precision="I64">
					<dim>1</dim>
				</port>
			</output>
		</layer>
		<layer id="370" name="589" type="ShapeOf" version="opset3">
			<data output_type="i64"/>
			<input>
				<port id="0" precision="FP32">
					<dim>1</dim>
					<dim>16</dim>
					<dim>512</dim>
				</port>
			</input>
			<output>
				<port id="1" names="589" precision="I64">
					<dim>3</dim>
				</port>
			</output>
		</layer>
		<layer id="371" name="590/Concat629020818" type="Const" version="opset1">
			<data element_type="i64" offset="32824" shape="1" size="8"/>
			<output>
				<port id="0" precision="I64">
					<dim>1</dim>
				</port>
			</output>
		</layer>
		<layer id="372" name="590/Concat6280629120416" type="Const" version="opset1">
			<data element_type="i64" offset="32808" shape="1" size="8"/>
			<output>
				<port id="0" precision="I64">
					<dim>1</dim>
				</port>
			</output>
		</layer>
		<layer id="373" name="590/Strides629221043" type="Const" version="opset1">
			<data element_type="i64" offset="32824" shape="1" size="8"/>
			<output>
				<port id="0" precision="I64">
					<dim>1</dim>
				</port>
			</output>
		</layer>
		<layer id="374" name="590" type="StridedSlice" version="opset1">
			<data begin_mask="0" ellipsis_mask="0" end_mask="0" new_axis_mask="0" shrink_axis_mask="0"/>
			<input>
				<port id="0" precision="I64">
					<dim>3</dim>
				</port>
				<port id="1" precision="I64">
					<dim>1</dim>
				</port>
				<port id="2" precision="I64">
					<dim>1</dim>
				</port>
				<port id="3" precision="I64">
					<dim>1</dim>
				</port>
			</input>
			<output>
				<port id="4" names="590" precision="I64">
					<dim>1</dim>
				</port>
			</output>
		</layer>
		<layer id="375" name="591/Dims" type="Const" version="opset1">
			<data element_type="i64" offset="32832" shape="1" size="8"/>
			<output>
				<port id="0" precision="I64">
					<dim>1</dim>
				</port>
			</output>
		</layer>
		<layer id="376" name="591" type="Squeeze" version="opset1">
			<input>
				<port id="0" precision="I64">
					<dim>1</dim>
				</port>
				<port id="1" precision="I64">
					<dim>1</dim>
				</port>
			</input>
			<output>
				<port id="2" names="591" precision="I64"/>
			</output>
		</layer>
		<layer id="377" name="642/Dims" type="Const" version="opset1">
			<data element_type="i64" offset="32832" shape="1" size="8"/>
			<output>
				<port id="0" precision="I64">
					<dim>1</dim>
				</port>
			</output>
		</layer>
		<layer id="378" name="642/Unsqueeze" type="Unsqueeze" version="opset1">
			<input>
				<port id="0" precision="I64"/>
				<port id="1" precision="I64">
					<dim>1</dim>
				</port>
			</input>
			<output>
				<port id="2" names="642" precision="I64">
					<dim>1</dim>
				</port>
			</output>
		</layer>
		<layer id="379" name="643/Unsqueeze" type="Const" version="opset1">
			<data element_type="i64" offset="1081416" shape="1" size="8"/>
			<output>
				<port id="0" names="643" precision="I64">
					<dim>1</dim>
				</port>
			</output>
		</layer>
		<layer id="380" name="644" type="Concat" version="opset1">
			<data axis="0"/>
			<input>
				<port id="0" precision="I64">
					<dim>1</dim>
				</port>
				<port id="1" precision="I64">
					<dim>1</dim>
				</port>
				<port id="2" precision="I64">
					<dim>1</dim>
				</port>
			</input>
			<output>
				<port id="3" names="644" precision="I64">
					<dim>3</dim>
				</port>
			</output>
		</layer>
		<layer id="381" name="645" type="Reshape" version="opset1">
			<data special_zero="true"/>
			<input>
				<port id="0" precision="FP32">
					<dim>8</dim>
					<dim>16</dim>
					<dim>64</dim>
				</port>
				<port id="1" precision="I64">
					<dim>3</dim>
				</port>
			</input>
			<output>
				<port id="2" names="645" precision="FP32">
					<dim>8</dim>
					<dim>16</dim>
					<dim>64</dim>
				</port>
			</output>
		</layer>
		<layer id="382" name="671" type="MatMul" version="opset1">
			<data transpose_a="false" transpose_b="false"/>
			<input>
				<port id="0" precision="FP32">
					<dim>8</dim>
					<dim>16</dim>
					<dim>16</dim>
				</port>
				<port id="1" precision="FP32">
					<dim>8</dim>
					<dim>16</dim>
					<dim>64</dim>
				</port>
			</input>
			<output>
				<port id="2" names="671" precision="FP32">
					<dim>8</dim>
					<dim>16</dim>
					<dim>64</dim>
				</port>
			</output>
		</layer>
		<layer id="383" name="672/VariadicSplit_input_port_1/value" type="Const" version="opset1">
			<data element_type="i64" offset="32832" shape="" size="8"/>
			<output>
				<port id="0" precision="I64"/>
			</output>
		</layer>
		<layer id="384" name="672/VariadicSplit_input_port_2/value" type="Const" version="opset1">
			<data element_type="i64" offset="3178872" shape="8" size="64"/>
			<output>
				<port id="0" precision="I64">
					<dim>8</dim>
				</port>
			</output>
		</layer>
		<layer id="385" name="672/VariadicSplit" type="VariadicSplit" version="opset1">
			<input>
				<port id="0" precision="FP32">
					<dim>8</dim>
					<dim>16</dim>
					<dim>64</dim>
				</port>
				<port id="1" precision="I64"/>
				<port id="2" precision="I64">
					<dim>8</dim>
				</port>
			</input>
			<output>
				<port id="3" names="672" precision="FP32">
					<dim>1</dim>
					<dim>16</dim>
					<dim>64</dim>
				</port>
				<port id="4" names="673" precision="FP32">
					<dim>1</dim>
					<dim>16</dim>
					<dim>64</dim>
				</port>
				<port id="5" names="674" precision="FP32">
					<dim>1</dim>
					<dim>16</dim>
					<dim>64</dim>
				</port>
				<port id="6" names="675" precision="FP32">
					<dim>1</dim>
					<dim>16</dim>
					<dim>64</dim>
				</port>
				<port id="7" names="676" precision="FP32">
					<dim>1</dim>
					<dim>16</dim>
					<dim>64</dim>
				</port>
				<port id="8" names="677" precision="FP32">
					<dim>1</dim>
					<dim>16</dim>
					<dim>64</dim>
				</port>
				<port id="9" names="678" precision="FP32">
					<dim>1</dim>
					<dim>16</dim>
					<dim>64</dim>
				</port>
				<port id="10" names="679" precision="FP32">
					<dim>1</dim>
					<dim>16</dim>
					<dim>64</dim>
				</port>
			</output>
		</layer>
		<layer id="386" name="680" type="Concat" version="opset1">
			<data axis="2"/>
			<input>
				<port id="0" precision="FP32">
					<dim>1</dim>
					<dim>16</dim>
					<dim>64</dim>
				</port>
				<port id="1" precision="FP32">
					<dim>1</dim>
					<dim>16</dim>
					<dim>64</dim>
				</port>
				<port id="2" precision="FP32">
					<dim>1</dim>
					<dim>16</dim>
					<dim>64</dim>
				</port>
				<port id="3" precision="FP32">
					<dim>1</dim>
					<dim>16</dim>
					<dim>64</dim>
				</port>
				<port id="4" precision="FP32">
					<dim>1</dim>
					<dim>16</dim>
					<dim>64</dim>
				</port>
				<port id="5" precision="FP32">
					<dim>1</dim>
					<dim>16</dim>
					<dim>64</dim>
				</port>
				<port id="6" precision="FP32">
					<dim>1</dim>
					<dim>16</dim>
					<dim>64</dim>
				</port>
				<port id="7" precision="FP32">
					<dim>1</dim>
					<dim>16</dim>
					<dim>64</dim>
				</port>
			</input>
			<output>
				<port id="8" names="680,681" precision="FP32">
					<dim>1</dim>
					<dim>16</dim>
					<dim>512</dim>
				</port>
			</output>
		</layer>
		<layer id="387" name="683" type="Add" version="opset1">
			<data auto_broadcast="numpy"/>
			<input>
				<port id="0" precision="FP32">
					<dim>1</dim>
					<dim>16</dim>
					<dim>512</dim>
				</port>
				<port id="1" precision="FP32">
					<dim>1</dim>
					<dim>16</dim>
					<dim>512</dim>
				</port>
			</input>
			<output>
				<port id="2" names="683" precision="FP32">
					<dim>1</dim>
					<dim>16</dim>
					<dim>512</dim>
				</port>
			</output>
		</layer>
		<layer id="388" name="791" type="Const" version="opset1">
			<data element_type="i64" offset="2130000" shape="3" size="24"/>
			<output>
				<port id="0" precision="I64">
					<dim>3</dim>
				</port>
			</output>
		</layer>
		<layer id="389" name="684" type="Transpose" version="opset1">
			<input>
				<port id="0" precision="FP32">
					<dim>1</dim>
					<dim>16</dim>
					<dim>512</dim>
				</port>
				<port id="1" precision="I64">
					<dim>3</dim>
				</port>
			</input>
			<output>
				<port id="2" names="684" precision="FP32">
					<dim>1</dim>
					<dim>512</dim>
					<dim>16</dim>
				</port>
			</output>
		</layer>
		<layer id="390" name="343" type="Const" version="opset1">
			<data element_type="f32" offset="17871288" shape="1024, 512, 1" size="2097152"/>
			<output>
				<port id="0" names="343" precision="FP32">
					<dim>1024</dim>
					<dim>512</dim>
					<dim>1</dim>
				</port>
			</output>
		</layer>
		<layer id="391" name="685/WithoutBiases" type="Convolution" version="opset1">
			<data auto_pad="explicit" dilations="1" pads_begin="0" pads_end="0" strides="1"/>
			<input>
				<port id="0" precision="FP32">
					<dim>1</dim>
					<dim>512</dim>
					<dim>16</dim>
				</port>
				<port id="1" precision="FP32">
					<dim>1024</dim>
					<dim>512</dim>
					<dim>1</dim>
				</port>
			</input>
			<output>
				<port id="2" precision="FP32">
					<dim>1</dim>
					<dim>1024</dim>
					<dim>16</dim>
				</port>
			</output>
		</layer>
		<layer id="392" name="685/Dims5517" type="Const" version="opset1">
			<data element_type="f32" offset="19968440" shape="1, 1024, 1" size="4096"/>
			<output>
				<port id="0" precision="FP32">
					<dim>1</dim>
					<dim>1024</dim>
					<dim>1</dim>
				</port>
			</output>
		</layer>
		<layer id="393" name="685" type="Add" version="opset1">
			<data auto_broadcast="numpy"/>
			<input>
				<port id="0" precision="FP32">
					<dim>1</dim>
					<dim>1024</dim>
					<dim>16</dim>
				</port>
				<port id="1" precision="FP32">
					<dim>1</dim>
					<dim>1024</dim>
					<dim>1</dim>
				</port>
			</input>
			<output>
				<port id="2" names="685" precision="FP32">
					<dim>1</dim>
					<dim>1024</dim>
					<dim>16</dim>
				</port>
			</output>
		</layer>
		<layer id="394" name="686" type="ReLU" version="opset1">
			<input>
				<port id="0" precision="FP32">
					<dim>1</dim>
					<dim>1024</dim>
					<dim>16</dim>
				</port>
			</input>
			<output>
				<port id="1" names="686" precision="FP32">
					<dim>1</dim>
					<dim>1024</dim>
					<dim>16</dim>
				</port>
			</output>
		</layer>
		<layer id="395" name="345" type="Const" version="opset1">
			<data element_type="f32" offset="19972536" shape="512, 1024, 1" size="2097152"/>
			<output>
				<port id="0" names="345" precision="FP32">
					<dim>512</dim>
					<dim>1024</dim>
					<dim>1</dim>
				</port>
			</output>
		</layer>
		<layer id="396" name="687/WithoutBiases" type="Convolution" version="opset1">
			<data auto_pad="explicit" dilations="1" pads_begin="0" pads_end="0" strides="1"/>
			<input>
				<port id="0" precision="FP32">
					<dim>1</dim>
					<dim>1024</dim>
					<dim>16</dim>
				</port>
				<port id="1" precision="FP32">
					<dim>512</dim>
					<dim>1024</dim>
					<dim>1</dim>
				</port>
			</input>
			<output>
				<port id="2" precision="FP32">
					<dim>1</dim>
					<dim>512</dim>
					<dim>16</dim>
				</port>
			</output>
		</layer>
		<layer id="397" name="687/Dims5511" type="Const" version="opset1">
			<data element_type="f32" offset="22069688" shape="1, 512, 1" size="2048"/>
			<output>
				<port id="0" precision="FP32">
					<dim>1</dim>
					<dim>512</dim>
					<dim>1</dim>
				</port>
			</output>
		</layer>
		<layer id="398" name="687" type="Add" version="opset1">
			<data auto_broadcast="numpy"/>
			<input>
				<port id="0" precision="FP32">
					<dim>1</dim>
					<dim>512</dim>
					<dim>16</dim>
				</port>
				<port id="1" precision="FP32">
					<dim>1</dim>
					<dim>512</dim>
					<dim>1</dim>
				</port>
			</input>
			<output>
				<port id="2" names="687" precision="FP32">
					<dim>1</dim>
					<dim>512</dim>
					<dim>16</dim>
				</port>
			</output>
		</layer>
		<layer id="399" name="805" type="Const" version="opset1">
			<data element_type="i64" offset="2130000" shape="3" size="24"/>
			<output>
				<port id="0" precision="I64">
					<dim>3</dim>
				</port>
			</output>
		</layer>
		<layer id="400" name="688" type="Transpose" version="opset1">
			<input>
				<port id="0" precision="FP32">
					<dim>1</dim>
					<dim>512</dim>
					<dim>16</dim>
				</port>
				<port id="1" precision="I64">
					<dim>3</dim>
				</port>
			</input>
			<output>
				<port id="2" names="688,689" precision="FP32">
					<dim>1</dim>
					<dim>16</dim>
					<dim>512</dim>
				</port>
			</output>
		</layer>
		<layer id="401" name="691" type="Add" version="opset1">
			<data auto_broadcast="numpy"/>
			<input>
				<port id="0" precision="FP32">
					<dim>1</dim>
					<dim>16</dim>
					<dim>512</dim>
				</port>
				<port id="1" precision="FP32">
					<dim>1</dim>
					<dim>16</dim>
					<dim>512</dim>
				</port>
			</input>
			<output>
				<port id="2" names="691" precision="FP32">
					<dim>1</dim>
					<dim>16</dim>
					<dim>512</dim>
				</port>
			</output>
		</layer>
		<layer id="402" name="704" type="Const" version="opset1">
			<data element_type="i64" offset="32768" shape="3" size="24"/>
			<output>
				<port id="0" names="704" precision="I64">
					<dim>3</dim>
				</port>
			</output>
		</layer>
		<layer id="403" name="705" type="Tile" version="opset1">
			<input>
				<port id="0" precision="FP32">
					<dim>1</dim>
					<dim>16</dim>
					<dim>512</dim>
				</port>
				<port id="1" precision="I64">
					<dim>3</dim>
				</port>
			</input>
			<output>
				<port id="2" names="705" precision="FP32">
					<dim>8</dim>
					<dim>16</dim>
					<dim>512</dim>
				</port>
			</output>
		</layer>
		<layer id="404" name="708/Unsqueeze" type="Const" version="opset1">
			<data element_type="i64" offset="32792" shape="1" size="8"/>
			<output>
				<port id="0" names="708" precision="I64">
					<dim>1</dim>
				</port>
			</output>
		</layer>
		<layer id="405" name="709/Unsqueeze" type="Const" version="opset1">
			<data element_type="i64" offset="32800" shape="1" size="8"/>
			<output>
				<port id="0" names="709" precision="I64">
					<dim>1</dim>
				</port>
			</output>
		</layer>
		<layer id="406" name="701" type="ShapeOf" version="opset3">
			<data output_type="i64"/>
			<input>
				<port id="0" precision="FP32">
					<dim>1</dim>
					<dim>16</dim>
					<dim>512</dim>
				</port>
			</input>
			<output>
				<port id="1" names="701" precision="I64">
					<dim>3</dim>
				</port>
			</output>
		</layer>
		<layer id="407" name="702/Concat593020890" type="Const" version="opset1">
			<data element_type="i64" offset="32808" shape="1" size="8"/>
			<output>
				<port id="0" precision="I64">
					<dim>1</dim>
				</port>
			</output>
		</layer>
		<layer id="408" name="702/Concat5920593121031" type="Const" version="opset1">
			<data element_type="i64" offset="32816" shape="1" size="8"/>
			<output>
				<port id="0" precision="I64">
					<dim>1</dim>
				</port>
			</output>
		</layer>
		<layer id="409" name="702/Strides593220623" type="Const" version="opset1">
			<data element_type="i64" offset="32824" shape="1" size="8"/>
			<output>
				<port id="0" precision="I64">
					<dim>1</dim>
				</port>
			</output>
		</layer>
		<layer id="410" name="702" type="StridedSlice" version="opset1">
			<data begin_mask="0" ellipsis_mask="0" end_mask="0" new_axis_mask="0" shrink_axis_mask="0"/>
			<input>
				<port id="0" precision="I64">
					<dim>3</dim>
				</port>
				<port id="1" precision="I64">
					<dim>1</dim>
				</port>
				<port id="2" precision="I64">
					<dim>1</dim>
				</port>
				<port id="3" precision="I64">
					<dim>1</dim>
				</port>
			</input>
			<output>
				<port id="4" names="702" precision="I64">
					<dim>1</dim>
				</port>
			</output>
		</layer>
		<layer id="411" name="703/Dims" type="Const" version="opset1">
			<data element_type="i64" offset="32832" shape="1" size="8"/>
			<output>
				<port id="0" precision="I64">
					<dim>1</dim>
				</port>
			</output>
		</layer>
		<layer id="412" name="703" type="Squeeze" version="opset1">
			<input>
				<port id="0" precision="I64">
					<dim>1</dim>
				</port>
				<port id="1" precision="I64">
					<dim>1</dim>
				</port>
			</input>
			<output>
				<port id="2" names="703" precision="I64"/>
			</output>
		</layer>
		<layer id="413" name="710/Dims" type="Const" version="opset1">
			<data element_type="i64" offset="32832" shape="1" size="8"/>
			<output>
				<port id="0" precision="I64">
					<dim>1</dim>
				</port>
			</output>
		</layer>
		<layer id="414" name="710/Unsqueeze" type="Unsqueeze" version="opset1">
			<input>
				<port id="0" precision="I64"/>
				<port id="1" precision="I64">
					<dim>1</dim>
				</port>
			</input>
			<output>
				<port id="2" names="710" precision="I64">
					<dim>1</dim>
				</port>
			</output>
		</layer>
		<layer id="415" name="711" type="Concat" version="opset1">
			<data axis="0"/>
			<input>
				<port id="0" precision="I64">
					<dim>1</dim>
				</port>
				<port id="1" precision="I64">
					<dim>1</dim>
				</port>
				<port id="2" precision="I64">
					<dim>1</dim>
				</port>
			</input>
			<output>
				<port id="3" names="711" precision="I64">
					<dim>3</dim>
				</port>
			</output>
		</layer>
		<layer id="416" name="712" type="Reshape" version="opset1">
			<data special_zero="true"/>
			<input>
				<port id="0" precision="FP32">
					<dim>8</dim>
					<dim>16</dim>
					<dim>512</dim>
				</port>
				<port id="1" precision="I64">
					<dim>3</dim>
				</port>
			</input>
			<output>
				<port id="2" names="712" precision="FP32">
					<dim>8</dim>
					<dim>16</dim>
					<dim>512</dim>
				</port>
			</output>
		</layer>
		<layer id="417" name="349" type="Const" version="opset1">
			<data element_type="f32" offset="22071736" shape="8, 512, 64" size="1048576"/>
			<output>
				<port id="0" names="349" precision="FP32">
					<dim>8</dim>
					<dim>512</dim>
					<dim>64</dim>
				</port>
			</output>
		</layer>
		<layer id="418" name="731" type="MatMul" version="opset1">
			<data transpose_a="false" transpose_b="false"/>
			<input>
				<port id="0" precision="FP32">
					<dim>8</dim>
					<dim>16</dim>
					<dim>512</dim>
				</port>
				<port id="1" precision="FP32">
					<dim>8</dim>
					<dim>512</dim>
					<dim>64</dim>
				</port>
			</input>
			<output>
				<port id="2" names="731" precision="FP32">
					<dim>8</dim>
					<dim>16</dim>
					<dim>64</dim>
				</port>
			</output>
		</layer>
		<layer id="419" name="734/Unsqueeze" type="Const" version="opset1">
			<data element_type="i64" offset="32800" shape="1" size="8"/>
			<output>
				<port id="0" names="734" precision="I64">
					<dim>1</dim>
				</port>
			</output>
		</layer>
		<layer id="420" name="692" type="ShapeOf" version="opset3">
			<data output_type="i64"/>
			<input>
				<port id="0" precision="FP32">
					<dim>1</dim>
					<dim>16</dim>
					<dim>512</dim>
				</port>
			</input>
			<output>
				<port id="1" names="692" precision="I64">
					<dim>3</dim>
				</port>
			</output>
		</layer>
		<layer id="421" name="693/Concat654220740" type="Const" version="opset1">
			<data element_type="i64" offset="32824" shape="1" size="8"/>
			<output>
				<port id="0" precision="I64">
					<dim>1</dim>
				</port>
			</output>
		</layer>
		<layer id="422" name="693/Concat6532654320341" type="Const" version="opset1">
			<data element_type="i64" offset="32808" shape="1" size="8"/>
			<output>
				<port id="0" precision="I64">
					<dim>1</dim>
				</port>
			</output>
		</layer>
		<layer id="423" name="693/Strides654420749" type="Const" version="opset1">
			<data element_type="i64" offset="32824" shape="1" size="8"/>
			<output>
				<port id="0" precision="I64">
					<dim>1</dim>
				</port>
			</output>
		</layer>
		<layer id="424" name="693" type="StridedSlice" version="opset1">
			<data begin_mask="0" ellipsis_mask="0" end_mask="0" new_axis_mask="0" shrink_axis_mask="0"/>
			<input>
				<port id="0" precision="I64">
					<dim>3</dim>
				</port>
				<port id="1" precision="I64">
					<dim>1</dim>
				</port>
				<port id="2" precision="I64">
					<dim>1</dim>
				</port>
				<port id="3" precision="I64">
					<dim>1</dim>
				</port>
			</input>
			<output>
				<port id="4" names="693" precision="I64">
					<dim>1</dim>
				</port>
			</output>
		</layer>
		<layer id="425" name="694/Dims" type="Const" version="opset1">
			<data element_type="i64" offset="32832" shape="1" size="8"/>
			<output>
				<port id="0" precision="I64">
					<dim>1</dim>
				</port>
			</output>
		</layer>
		<layer id="426" name="694" type="Squeeze" version="opset1">
			<input>
				<port id="0" precision="I64">
					<dim>1</dim>
				</port>
				<port id="1" precision="I64">
					<dim>1</dim>
				</port>
			</input>
			<output>
				<port id="2" names="694" precision="I64"/>
			</output>
		</layer>
		<layer id="427" name="735/Dims" type="Const" version="opset1">
			<data element_type="i64" offset="32832" shape="1" size="8"/>
			<output>
				<port id="0" precision="I64">
					<dim>1</dim>
				</port>
			</output>
		</layer>
		<layer id="428" name="735/Unsqueeze" type="Unsqueeze" version="opset1">
			<input>
				<port id="0" precision="I64"/>
				<port id="1" precision="I64">
					<dim>1</dim>
				</port>
			</input>
			<output>
				<port id="2" names="735" precision="I64">
					<dim>1</dim>
				</port>
			</output>
		</layer>
		<layer id="429" name="736/Unsqueeze" type="Const" version="opset1">
			<data element_type="i64" offset="1081416" shape="1" size="8"/>
			<output>
				<port id="0" names="736" precision="I64">
					<dim>1</dim>
				</port>
			</output>
		</layer>
		<layer id="430" name="737" type="Concat" version="opset1">
			<data axis="0"/>
			<input>
				<port id="0" precision="I64">
					<dim>1</dim>
				</port>
				<port id="1" precision="I64">
					<dim>1</dim>
				</port>
				<port id="2" precision="I64">
					<dim>1</dim>
				</port>
			</input>
			<output>
				<port id="3" names="737" precision="I64">
					<dim>3</dim>
				</port>
			</output>
		</layer>
		<layer id="431" name="738" type="Reshape" version="opset1">
			<data special_zero="true"/>
			<input>
				<port id="0" precision="FP32">
					<dim>8</dim>
					<dim>16</dim>
					<dim>64</dim>
				</port>
				<port id="1" precision="I64">
					<dim>3</dim>
				</port>
			</input>
			<output>
				<port id="2" names="738" precision="FP32">
					<dim>8</dim>
					<dim>16</dim>
					<dim>64</dim>
				</port>
			</output>
		</layer>
		<layer id="432" name="713" type="Const" version="opset1">
			<data element_type="i64" offset="32768" shape="3" size="24"/>
			<output>
				<port id="0" names="713" precision="I64">
					<dim>3</dim>
				</port>
			</output>
		</layer>
		<layer id="433" name="714" type="Tile" version="opset1">
			<input>
				<port id="0" precision="FP32">
					<dim>1</dim>
					<dim>16</dim>
					<dim>512</dim>
				</port>
				<port id="1" precision="I64">
					<dim>3</dim>
				</port>
			</input>
			<output>
				<port id="2" names="714" precision="FP32">
					<dim>8</dim>
					<dim>16</dim>
					<dim>512</dim>
				</port>
			</output>
		</layer>
		<layer id="434" name="717/Unsqueeze" type="Const" version="opset1">
			<data element_type="i64" offset="32792" shape="1" size="8"/>
			<output>
				<port id="0" names="717" precision="I64">
					<dim>1</dim>
				</port>
			</output>
		</layer>
		<layer id="435" name="718/Unsqueeze" type="Const" version="opset1">
			<data element_type="i64" offset="32800" shape="1" size="8"/>
			<output>
				<port id="0" names="718" precision="I64">
					<dim>1</dim>
				</port>
			</output>
		</layer>
		<layer id="436" name="719/Dims" type="Const" version="opset1">
			<data element_type="i64" offset="32832" shape="1" size="8"/>
			<output>
				<port id="0" precision="I64">
					<dim>1</dim>
				</port>
			</output>
		</layer>
		<layer id="437" name="719/Unsqueeze" type="Unsqueeze" version="opset1">
			<input>
				<port id="0" precision="I64"/>
				<port id="1" precision="I64">
					<dim>1</dim>
				</port>
			</input>
			<output>
				<port id="2" names="719" precision="I64">
					<dim>1</dim>
				</port>
			</output>
		</layer>
		<layer id="438" name="720" type="Concat" version="opset1">
			<data axis="0"/>
			<input>
				<port id="0" precision="I64">
					<dim>1</dim>
				</port>
				<port id="1" precision="I64">
					<dim>1</dim>
				</port>
				<port id="2" precision="I64">
					<dim>1</dim>
				</port>
			</input>
			<output>
				<port id="3" names="720" precision="I64">
					<dim>3</dim>
				</port>
			</output>
		</layer>
		<layer id="439" name="721" type="Reshape" version="opset1">
			<data special_zero="true"/>
			<input>
				<port id="0" precision="FP32">
					<dim>8</dim>
					<dim>16</dim>
					<dim>512</dim>
				</port>
				<port id="1" precision="I64">
					<dim>3</dim>
				</port>
			</input>
			<output>
				<port id="2" names="721" precision="FP32">
					<dim>8</dim>
					<dim>16</dim>
					<dim>512</dim>
				</port>
			</output>
		</layer>
		<layer id="440" name="350" type="Const" version="opset1">
			<data element_type="f32" offset="23120312" shape="8, 512, 64" size="1048576"/>
			<output>
				<port id="0" names="350" precision="FP32">
					<dim>8</dim>
					<dim>512</dim>
					<dim>64</dim>
				</port>
			</output>
		</layer>
		<layer id="441" name="739" type="MatMul" version="opset1">
			<data transpose_a="false" transpose_b="false"/>
			<input>
				<port id="0" precision="FP32">
					<dim>8</dim>
					<dim>16</dim>
					<dim>512</dim>
				</port>
				<port id="1" precision="FP32">
					<dim>8</dim>
					<dim>512</dim>
					<dim>64</dim>
				</port>
			</input>
			<output>
				<port id="2" names="739" precision="FP32">
					<dim>8</dim>
					<dim>16</dim>
					<dim>64</dim>
				</port>
			</output>
		</layer>
		<layer id="442" name="742/Unsqueeze" type="Const" version="opset1">
			<data element_type="i64" offset="32800" shape="1" size="8"/>
			<output>
				<port id="0" names="742" precision="I64">
					<dim>1</dim>
				</port>
			</output>
		</layer>
		<layer id="443" name="695" type="ShapeOf" version="opset3">
			<data output_type="i64"/>
			<input>
				<port id="0" precision="FP32">
					<dim>1</dim>
					<dim>16</dim>
					<dim>512</dim>
				</port>
			</input>
			<output>
				<port id="1" names="695" precision="I64">
					<dim>3</dim>
				</port>
			</output>
		</layer>
		<layer id="444" name="696/Concat657820767" type="Const" version="opset1">
			<data element_type="i64" offset="32824" shape="1" size="8"/>
			<output>
				<port id="0" precision="I64">
					<dim>1</dim>
				</port>
			</output>
		</layer>
		<layer id="445" name="696/Concat6568657920356" type="Const" version="opset1">
			<data element_type="i64" offset="32808" shape="1" size="8"/>
			<output>
				<port id="0" precision="I64">
					<dim>1</dim>
				</port>
			</output>
		</layer>
		<layer id="446" name="696/Strides658020731" type="Const" version="opset1">
			<data element_type="i64" offset="32824" shape="1" size="8"/>
			<output>
				<port id="0" precision="I64">
					<dim>1</dim>
				</port>
			</output>
		</layer>
		<layer id="447" name="696" type="StridedSlice" version="opset1">
…
					<dim>1</dim>
					<dim>1024</dim>
					<dim>16</dim>
				</port>
			</input>
			<output>
				<port id="1" names="795" precision="FP32">
					<dim>1</dim>
					<dim>1024</dim>
					<dim>16</dim>
				</port>
			</output>
		</layer>
		<layer id="528" name="356" type="Const" version="opset1">
			<data element_type="f32" offset="27318712" shape="512, 1024, 1" size="2097152"/>
			<output>
				<port id="0" names="356" precision="FP32">
					<dim>512</dim>
					<dim>1024</dim>
					<dim>1</dim>
				</port>
			</output>
		</layer>
		<layer id="529" name="796/WithoutBiases" type="Convolution" version="opset1">
			<data auto_pad="explicit" dilations="1" pads_begin="0" pads_end="0" strides="1"/>
			<input>
				<port id="0" precision="FP32">
					<dim>1</dim>
					<dim>1024</dim>
					<dim>16</dim>
				</port>
				<port id="1" precision="FP32">
					<dim>512</dim>
					<dim>1024</dim>
					<dim>1</dim>
				</port>
			</input>
			<output>
				<port id="2" precision="FP32">
					<dim>1</dim>
					<dim>512</dim>
					<dim>16</dim>
				</port>
			</output>
		</layer>
		<layer id="530" name="796/Dims5493" type="Const" version="opset1">
			<data element_type="f32" offset="29415864" shape="1, 512, 1" size="2048"/>
			<output>
				<port id="0" precision="FP32">
					<dim>1</dim>
					<dim>512</dim>
					<dim>1</dim>
				</port>
			</output>
		</layer>
		<layer id="531" name="796" type="Add" version="opset1">
			<data auto_broadcast="numpy"/>
			<input>
				<port id="0" precision="FP32">
					<dim>1</dim>
					<dim>512</dim>
					<dim>16</dim>
				</port>
				<port id="1" precision="FP32">
					<dim>1</dim>
					<dim>512</dim>
					<dim>1</dim>
				</port>
			</input>
			<output>
				<port id="2" names="796" precision="FP32">
					<dim>1</dim>
					<dim>512</dim>
					<dim>16</dim>
				</port>
			</output>
		</layer>
		<layer id="532" name="807" type="Const" version="opset1">
			<data element_type="i64" offset="2130000" shape="3" size="24"/>
			<output>
				<port id="0" precision="I64">
					<dim>3</dim>
				</port>
			</output>
		</layer>
		<layer id="533" name="797" type="Transpose" version="opset1">
			<input>
				<port id="0" precision="FP32">
					<dim>1</dim>
					<dim>512</dim>
					<dim>16</dim>
				</port>
				<port id="1" precision="I64">
					<dim>3</dim>
				</port>
			</input>
			<output>
				<port id="2" names="797,798" precision="FP32">
					<dim>1</dim>
					<dim>16</dim>
					<dim>512</dim>
				</port>
			</output>
		</layer>
		<layer id="534" name="800" type="Add" version="opset1">
			<data auto_broadcast="numpy"/>
			<input>
				<port id="0" precision="FP32">
					<dim>1</dim>
					<dim>16</dim>
					<dim>512</dim>
				</port>
				<port id="1" precision="FP32">
					<dim>1</dim>
					<dim>16</dim>
					<dim>512</dim>
				</port>
			</input>
			<output>
				<port id="2" names="800" precision="FP32">
					<dim>1</dim>
					<dim>16</dim>
					<dim>512</dim>
				</port>
			</output>
		</layer>
		<layer id="535" name="801" type="Const" version="opset1">
			<data element_type="f32" offset="29417912" shape="9, 512" size="18432"/>
			<output>
				<port id="0" names="801" precision="FP32">
					<dim>9</dim>
					<dim>512</dim>
				</port>
			</output>
		</layer>
		<layer id="536" name="802" type="MatMul" version="opset1">
			<data transpose_a="false" transpose_b="true"/>
			<input>
				<port id="0" precision="FP32">
					<dim>1</dim>
					<dim>16</dim>
					<dim>512</dim>
				</port>
				<port id="1" precision="FP32">
					<dim>9</dim>
					<dim>512</dim>
				</port>
			</input>
			<output>
				<port id="2" names="802" precision="FP32">
					<dim>1</dim>
					<dim>16</dim>
					<dim>9</dim>
				</port>
			</output>
		</layer>
		<layer id="537" name="361" type="Const" version="opset1">
			<data element_type="f32" offset="29436344" shape="1, 1, 9" size="36"/>
			<output>
				<port id="0" names="361" precision="FP32">
					<dim>1</dim>
					<dim>1</dim>
					<dim>9</dim>
				</port>
			</output>
		</layer>
		<layer id="538" name="803" type="Add" version="opset1">
			<data auto_broadcast="numpy"/>
			<input>
				<port id="0" precision="FP32">
					<dim>1</dim>
					<dim>16</dim>
					<dim>9</dim>
				</port>
				<port id="1" precision="FP32">
					<dim>1</dim>
					<dim>1</dim>
					<dim>9</dim>
				</port>
			</input>
			<output>
				<port id="2" names="803" precision="FP32">
					<dim>1</dim>
					<dim>16</dim>
					<dim>9</dim>
				</port>
			</output>
		</layer>
		<layer id="539" name="804766/axis" type="Const" version="opset1">
			<data element_type="i64" offset="32824" shape="1" size="8"/>
			<output>
				<port id="0" precision="I64">
					<dim>1</dim>
				</port>
			</output>
		</layer>
		<layer id="540" name="804" type="ReduceMean" version="opset1">
			<data keep_dims="false"/>
			<input>
				<port id="0" precision="FP32">
					<dim>1</dim>
					<dim>16</dim>
					<dim>9</dim>
				</port>
				<port id="1" precision="I64">
					<dim>1</dim>
				</port>
			</input>
			<output>
				<port id="2" names="804" precision="FP32">
					<dim>1</dim>
					<dim>9</dim>
				</port>
			</output>
		</layer>
		<layer id="541" name="804/sink_port_0" type="Result" version="opset1">
			<input>
				<port id="0" precision="FP32">
					<dim>1</dim>
					<dim>9</dim>
				</port>
			</input>
		</layer>
	</layers>
	<edges>
		<edge from-layer="0" from-port="0" to-layer="2" to-port="0"/>
		<edge from-layer="1" from-port="0" to-layer="2" to-port="1"/>
		<edge from-layer="2" from-port="2" to-layer="44" to-port="0"/>
		<edge from-layer="2" from-port="2" to-layer="94" to-port="0"/>
		<edge from-layer="2" from-port="2" to-layer="104" to-port="0"/>
		<edge from-layer="2" from-port="2" to-layer="121" to-port="1"/>
		<edge from-layer="2" from-port="2" to-layer="34" to-port="0"/>
		<edge from-layer="2" from-port="2" to-layer="21" to-port="0"/>
		<edge from-layer="2" from-port="2" to-layer="4" to-port="0"/>
		<edge from-layer="2" from-port="2" to-layer="7" to-port="0"/>
		<edge from-layer="3" from-port="0" to-layer="4" to-port="1"/>
		<edge from-layer="4" from-port="2" to-layer="17" to-port="0"/>
		<edge from-layer="5" from-port="0" to-layer="16" to-port="0"/>
		<edge from-layer="6" from-port="0" to-layer="16" to-port="1"/>
		<edge from-layer="7" from-port="1" to-layer="11" to-port="0"/>
		<edge from-layer="8" from-port="0" to-layer="11" to-port="1"/>
		<edge from-layer="9" from-port="0" to-layer="11" to-port="2"/>
		<edge from-layer="10" from-port="0" to-layer="11" to-port="3"/>
		<edge from-layer="11" from-port="4" to-layer="13" to-port="0"/>
		<edge from-layer="12" from-port="0" to-layer="13" to-port="1"/>
		<edge from-layer="13" from-port="2" to-layer="98" to-port="0"/>
		<edge from-layer="13" from-port="2" to-layer="15" to-port="0"/>
		<edge from-layer="13" from-port="2" to-layer="38" to-port="0"/>
		<edge from-layer="14" from-port="0" to-layer="15" to-port="1"/>
		<edge from-layer="15" from-port="2" to-layer="16" to-port="2"/>
		<edge from-layer="16" from-port="3" to-layer="17" to-port="1"/>
		<edge from-layer="17" from-port="2" to-layer="19" to-port="0"/>
		<edge from-layer="18" from-port="0" to-layer="19" to-port="1"/>
		<edge from-layer="19" from-port="2" to-layer="32" to-port="0"/>
		<edge from-layer="20" from-port="0" to-layer="31" to-port="0"/>
		<edge from-layer="21" from-port="1" to-layer="25" to-port="0"/>
		<edge from-layer="22" from-port="0" to-layer="25" to-port="1"/>
		<edge from-layer="23" from-port="0" to-layer="25" to-port="2"/>
		<edge from-layer="24" from-port="0" to-layer="25" to-port="3"/>
		<edge from-layer="25" from-port="4" to-layer="27" to-port="0"/>
		<edge from-layer="26" from-port="0" to-layer="27" to-port="1"/>
		<edge from-layer="27" from-port="2" to-layer="29" to-port="0"/>
		<edge from-layer="28" from-port="0" to-layer="29" to-port="1"/>
		<edge from-layer="29" from-port="2" to-layer="31" to-port="1"/>
		<edge from-layer="30" from-port="0" to-layer="31" to-port="2"/>
		<edge from-layer="31" from-port="3" to-layer="32" to-port="1"/>
		<edge from-layer="32" from-port="2" to-layer="60" to-port="0"/>
		<edge from-layer="33" from-port="0" to-layer="34" to-port="1"/>
		<edge from-layer="34" from-port="2" to-layer="40" to-port="0"/>
		<edge from-layer="35" from-port="0" to-layer="39" to-port="0"/>
		<edge from-layer="36" from-port="0" to-layer="39" to-port="1"/>
		<edge from-layer="37" from-port="0" to-layer="38" to-port="1"/>
		<edge from-layer="38" from-port="2" to-layer="39" to-port="2"/>
		<edge from-layer="39" from-port="3" to-layer="40" to-port="1"/>
		<edge from-layer="40" from-port="2" to-layer="42" to-port="0"/>
		<edge from-layer="41" from-port="0" to-layer="42" to-port="1"/>
		<edge from-layer="42" from-port="2" to-layer="55" to-port="0"/>
		<edge from-layer="43" from-port="0" to-layer="54" to-port="0"/>
		<edge from-layer="44" from-port="1" to-layer="48" to-port="0"/>
		<edge from-layer="45" from-port="0" to-layer="48" to-port="1"/>
		<edge from-layer="46" from-port="0" to-layer="48" to-port="2"/>
		<edge from-layer="47" from-port="0" to-layer="48" to-port="3"/>
		<edge from-layer="48" from-port="4" to-layer="50" to-port="0"/>
		<edge from-layer="49" from-port="0" to-layer="50" to-port="1"/>
		<edge from-layer="50" from-port="2" to-layer="52" to-port="0"/>
		<edge from-layer="51" from-port="0" to-layer="52" to-port="1"/>
		<edge from-layer="52" from-port="2" to-layer="54" to-port="1"/>
		<edge from-layer="53" from-port="0" to-layer="54" to-port="2"/>
		<edge from-layer="54" from-port="3" to-layer="55" to-port="1"/>
		<edge from-layer="55" from-port="2" to-layer="57" to-port="0"/>
		<edge from-layer="56" from-port="0" to-layer="57" to-port="1"/>
		<edge from-layer="57" from-port="2" to-layer="59" to-port="0"/>
		<edge from-layer="58" from-port="0" to-layer="59" to-port="1"/>
		<edge from-layer="59" from-port="2" to-layer="60" to-port="1"/>
		<edge from-layer="60" from-port="2" to-layer="61" to-port="0"/>
		<edge from-layer="60" from-port="2" to-layer="68" to-port="0"/>
		<edge from-layer="60" from-port="2" to-layer="80" to-port="0"/>
		<edge from-layer="61" from-port="1" to-layer="65" to-port="0"/>
		<edge from-layer="62" from-port="0" to-layer="65" to-port="1"/>
		<edge from-layer="63" from-port="0" to-layer="65" to-port="2"/>
		<edge from-layer="64" from-port="0" to-layer="65" to-port="3"/>
		<edge from-layer="65" from-port="4" to-layer="67" to-port="0"/>
		<edge from-layer="66" from-port="0" to-layer="67" to-port="1"/>
		<edge from-layer="67" from-port="2" to-layer="87" to-port="0"/>
		<edge from-layer="67" from-port="2" to-layer="75" to-port="0"/>
		<edge from-layer="68" from-port="1" to-layer="72" to-port="0"/>
		<edge from-layer="69" from-port="0" to-layer="72" to-port="1"/>
		<edge from-layer="70" from-port="0" to-layer="72" to-port="2"/>
		<edge from-layer="71" from-port="0" to-layer="72" to-port="3"/>
		<edge from-layer="72" from-port="4" to-layer="74" to-port="0"/>
		<edge from-layer="73" from-port="0" to-layer="74" to-port="1"/>
		<edge from-layer="74" from-port="2" to-layer="75" to-port="1"/>
		<edge from-layer="74" from-port="2" to-layer="89" to-port="0"/>
		<edge from-layer="75" from-port="2" to-layer="77" to-port="0"/>
		<edge from-layer="76" from-port="0" to-layer="77" to-port="1"/>
		<edge from-layer="77" from-port="2" to-layer="79" to-port="0"/>
		<edge from-layer="78" from-port="0" to-layer="79" to-port="1"/>
		<edge from-layer="79" from-port="2" to-layer="80" to-port="1"/>
		<edge from-layer="80" from-port="2" to-layer="84" to-port="0"/>
		<edge from-layer="80" from-port="2" to-layer="82" to-port="0"/>
		<edge from-layer="81" from-port="0" to-layer="82" to-port="1"/>
		<edge from-layer="82" from-port="2" to-layer="83" to-port="0"/>
		<edge from-layer="83" from-port="1" to-layer="85" to-port="0"/>
		<edge from-layer="84" from-port="1" to-layer="85" to-port="1"/>
		<edge from-layer="85" from-port="2" to-layer="92" to-port="0"/>
		<edge from-layer="86" from-port="0" to-layer="87" to-port="1"/>
		<edge from-layer="87" from-port="2" to-layer="91" to-port="0"/>
		<edge from-layer="88" from-port="0" to-layer="89" to-port="1"/>
		<edge from-layer="89" from-port="2" to-layer="91" to-port="1"/>
		<edge from-layer="90" from-port="0" to-layer="91" to-port="2"/>
		<edge from-layer="91" from-port="3" to-layer="92" to-port="1"/>
		<edge from-layer="92" from-port="2" to-layer="116" to-port="0"/>
		<edge from-layer="93" from-port="0" to-layer="94" to-port="1"/>
		<edge from-layer="94" from-port="2" to-layer="100" to-port="0"/>
		<edge from-layer="95" from-port="0" to-layer="99" to-port="0"/>
		<edge from-layer="96" from-port="0" to-layer="99" to-port="1"/>
		<edge from-layer="97" from-port="0" to-layer="98" to-port="1"/>
		<edge from-layer="98" from-port="2" to-layer="99" to-port="2"/>
		<edge from-layer="99" from-port="3" to-layer="100" to-port="1"/>
		<edge from-layer="100" from-port="2" to-layer="102" to-port="0"/>
		<edge from-layer="101" from-port="0" to-layer="102" to-port="1"/>
		<edge from-layer="102" from-port="2" to-layer="115" to-port="0"/>
		<edge from-layer="103" from-port="0" to-layer="114" to-port="0"/>
		<edge from-layer="104" from-port="1" to-layer="108" to-port="0"/>
		<edge from-layer="105" from-port="0" to-layer="108" to-port="1"/>
		<edge from-layer="106" from-port="0" to-layer="108" to-port="2"/>
		<edge from-layer="107" from-port="0" to-layer="108" to-port="3"/>
		<edge from-layer="108" from-port="4" to-layer="110" to-port="0"/>
		<edge from-layer="109" from-port="0" to-layer="110" to-port="1"/>
		<edge from-layer="110" from-port="2" to-layer="112" to-port="0"/>
		<edge from-layer="111" from-port="0" to-layer="112" to-port="1"/>
		<edge from-layer="112" from-port="2" to-layer="114" to-port="1"/>
		<edge from-layer="113" from-port="0" to-layer="114" to-port="2"/>
		<edge from-layer="114" from-port="3" to-layer="115" to-port="1"/>
		<edge from-layer="115" from-port="2" to-layer="116" to-port="1"/>
		<edge from-layer="116" from-port="2" to-layer="119" to-port="0"/>
		<edge from-layer="117" from-port="0" to-layer="119" to-port="1"/>
		<edge from-layer="118" from-port="0" to-layer="119" to-port="2"/>
		<edge from-layer="119" from-port="6" to-layer="120" to-port="3"/>
		<edge from-layer="119" from-port="10" to-layer="120" to-port="7"/>
		<edge from-layer="119" from-port="9" to-layer="120" to-port="6"/>
		<edge from-layer="119" from-port="8" to-layer="120" to-port="5"/>
		<edge from-layer="119" from-port="5" to-layer="120" to-port="2"/>
		<edge from-layer="119" from-port="4" to-layer="120" to-port="1"/>
		<edge from-layer="119" from-port="3" to-layer="120" to-port="0"/>
		<edge from-layer="119" from-port="7" to-layer="120" to-port="4"/>
		<edge from-layer="120" from-port="8" to-layer="121" to-port="0"/>
		<edge from-layer="121" from-port="2" to-layer="123" to-port="0"/>
		<edge from-layer="121" from-port="2" to-layer="135" to-port="1"/>
		<edge from-layer="122" from-port="0" to-layer="123" to-port="1"/>
		<edge from-layer="123" from-port="2" to-layer="125" to-port="0"/>
		<edge from-layer="124" from-port="0" to-layer="125" to-port="1"/>
		<edge from-layer="125" from-port="2" to-layer="127" to-port="0"/>
		<edge from-layer="126" from-port="0" to-layer="127" to-port="1"/>
		<edge from-layer="127" from-port="2" to-layer="128" to-port="0"/>
		<edge from-layer="128" from-port="1" to-layer="130" to-port="0"/>
		<edge from-layer="129" from-port="0" to-layer="130" to-port="1"/>
		<edge from-layer="130" from-port="2" to-layer="132" to-port="0"/>
		<edge from-layer="131" from-port="0" to-layer="132" to-port="1"/>
		<edge from-layer="132" from-port="2" to-layer="134" to-port="0"/>
		<edge from-layer="133" from-port="0" to-layer="134" to-port="1"/>
		<edge from-layer="134" from-port="2" to-layer="135" to-port="0"/>
		<edge from-layer="135" from-port="2" to-layer="140" to-port="0"/>
		<edge from-layer="135" from-port="2" to-layer="254" to-port="1"/>
		<edge from-layer="135" from-port="2" to-layer="237" to-port="0"/>
		<edge from-layer="135" from-port="2" to-layer="227" to-port="0"/>
		<edge from-layer="135" from-port="2" to-layer="177" to-port="0"/>
		<edge from-layer="135" from-port="2" to-layer="167" to-port="0"/>
		<edge from-layer="135" from-port="2" to-layer="154" to-port="0"/>
		<edge from-layer="135" from-port="2" to-layer="137" to-port="0"/>
		<edge from-layer="136" from-port="0" to-layer="137" to-port="1"/>
		<edge from-layer="137" from-port="2" to-layer="150" to-port="0"/>
		<edge from-layer="138" from-port="0" to-layer="149" to-port="0"/>
		<edge from-layer="139" from-port="0" to-layer="149" to-port="1"/>
		<edge from-layer="140" from-port="1" to-layer="144" to-port="0"/>
		<edge from-layer="141" from-port="0" to-layer="144" to-port="1"/>
		<edge from-layer="142" from-port="0" to-layer="144" to-port="2"/>
		<edge from-layer="143" from-port="0" to-layer="144" to-port="3"/>
		<edge from-layer="144" from-port="4" to-layer="146" to-port="0"/>
		<edge from-layer="145" from-port="0" to-layer="146" to-port="1"/>
		<edge from-layer="146" from-port="2" to-layer="231" to-port="0"/>
		<edge from-layer="146" from-port="2" to-layer="148" to-port="0"/>
		<edge from-layer="146" from-port="2" to-layer="171" to-port="0"/>
		<edge from-layer="147" from-port="0" to-layer="148" to-port="1"/>
		<edge from-layer="148" from-port="2" to-layer="149" to-port="2"/>
		<edge from-layer="149" from-port="3" to-layer="150" to-port="1"/>
		<edge from-layer="150" from-port="2" to-layer="152" to-port="0"/>
		<edge from-layer="151" from-port="0" to-layer="152" to-port="1"/>
		<edge from-layer="152" from-port="2" to-layer="165" to-port="0"/>
		<edge from-layer="153" from-port="0" to-layer="164" to-port="0"/>
		<edge from-layer="154" from-port="1" to-layer="158" to-port="0"/>
		<edge from-layer="155" from-port="0" to-layer="158" to-port="1"/>
		<edge from-layer="156" from-port="0" to-layer="158" to-port="2"/>
		<edge from-layer="157" from-port="0" to-layer="158" to-port="3"/>
		<edge from-layer="158" from-port="4" to-layer="160" to-port="0"/>
		<edge from-layer="159" from-port="0" to-layer="160" to-port="1"/>
		<edge from-layer="160" from-port="2" to-layer="162" to-port="0"/>
		<edge from-layer="161" from-port="0" to-layer="162" to-port="1"/>
		<edge from-layer="162" from-port="2" to-layer="164" to-port="1"/>
		<edge from-layer="163" from-port="0" to-layer="164" to-port="2"/>
		<edge from-layer="164" from-port="3" to-layer="165" to-port="1"/>
		<edge from-layer="165" from-port="2" to-layer="193" to-port="0"/>
		<edge from-layer="166" from-port="0" to-layer="167" to-port="1"/>
		<edge from-layer="167" from-port="2" to-layer="173" to-port="0"/>
		<edge from-layer="168" from-port="0" to-layer="172" to-port="0"/>
		<edge from-layer="169" from-port="0" to-layer="172" to-port="1"/>
		<edge from-layer="170" from-port="0" to-layer="171" to-port="1"/>
		<edge from-layer="171" from-port="2" to-layer="172" to-port="2"/>
		<edge from-layer="172" from-port="3" to-layer="173" to-port="1"/>
		<edge from-layer="173" from-port="2" to-layer="175" to-port="0"/>
		<edge from-layer="174" from-port="0" to-layer="175" to-port="1"/>
		<edge from-layer="175" from-port="2" to-layer="188" to-port="0"/>
		<edge from-layer="176" from-port="0" to-layer="187" to-port="0"/>
		<edge from-layer="177" from-port="1" to-layer="181" to-port="0"/>
		<edge from-layer="178" from-port="0" to-layer="181" to-port="1"/>
		<edge from-layer="179" from-port="0" to-layer="181" to-port="2"/>
		<edge from-layer="180" from-port="0" to-layer="181" to-port="3"/>
		<edge from-layer="181" from-port="4" to-layer="183" to-port="0"/>
		<edge from-layer="182" from-port="0" to-layer="183" to-port="1"/>
		<edge from-layer="183" from-port="2" to-layer="185" to-port="0"/>
		<edge from-layer="184" from-port="0" to-layer="185" to-port="1"/>
		<edge from-layer="185" from-port="2" to-layer="187" to-port="1"/>
		<edge from-layer="186" from-port="0" to-layer="187" to-port="2"/>
		<edge from-layer="187" from-port="3" to-layer="188" to-port="1"/>
		<edge from-layer="188" from-port="2" to-layer="190" to-port="0"/>
		<edge from-layer="189" from-port="0" to-layer="190" to-port="1"/>
		<edge from-layer="190" from-port="2" to-layer="192" to-port="0"/>
		<edge from-layer="191" from-port="0" to-layer="192" to-port="1"/>
		<edge from-layer="192" from-port="2" to-layer="193" to-port="1"/>
		<edge from-layer="193" from-port="2" to-layer="213" to-port="0"/>
		<edge from-layer="193" from-port="2" to-layer="201" to-port="0"/>
		<edge from-layer="193" from-port="2" to-layer="194" to-port="0"/>
		<edge from-layer="194" from-port="1" to-layer="198" to-port="0"/>
		<edge from-layer="195" from-port="0" to-layer="198" to-port="1"/>
		<edge from-layer="196" from-port="0" to-layer="198" to-port="2"/>
		<edge from-layer="197" from-port="0" to-layer="198" to-port="3"/>
		<edge from-layer="198" from-port="4" to-layer="200" to-port="0"/>
		<edge from-layer="199" from-port="0" to-layer="200" to-port="1"/>
		<edge from-layer="200" from-port="2" to-layer="220" to-port="0"/>
		<edge from-layer="200" from-port="2" to-layer="208" to-port="0"/>
		<edge from-layer="201" from-port="1" to-layer="205" to-port="0"/>
		<edge from-layer="202" from-port="0" to-layer="205" to-port="1"/>
		<edge from-layer="203" from-port="0" to-layer="205" to-port="2"/>
		<edge from-layer="204" from-port="0" to-layer="205" to-port="3"/>
		<edge from-layer="205" from-port="4" to-layer="207" to-port="0"/>
		<edge from-layer="206" from-port="0" to-layer="207" to-port="1"/>
		<edge from-layer="207" from-port="2" to-layer="208" to-port="1"/>
		<edge from-layer="207" from-port="2" to-layer="222" to-port="0"/>
		<edge from-layer="208" from-port="2" to-layer="210" to-port="0"/>
		<edge from-layer="209" from-port="0" to-layer="210" to-port="1"/>
		<edge from-layer="210" from-port="2" to-layer="212" to-port="0"/>
		<edge from-layer="211" from-port="0" to-layer="212" to-port="1"/>
		<edge from-layer="212" from-port="2" to-layer="213" to-port="1"/>
		<edge from-layer="213" from-port="2" to-layer="215" to-port="0"/>
		<edge from-layer="213" from-port="2" to-layer="217" to-port="0"/>
		<edge from-layer="214" from-port="0" to-layer="215" to-port="1"/>
		<edge from-layer="215" from-port="2" to-layer="216" to-port="0"/>
		<edge from-layer="216" from-port="1" to-layer="218" to-port="0"/>
		<edge from-layer="217" from-port="1" to-layer="218" to-port="1"/>
		<edge from-layer="218" from-port="2" to-layer="225" to-port="0"/>
		<edge from-layer="219" from-port="0" to-layer="220" to-port="1"/>
		<edge from-layer="220" from-port="2" to-layer="224" to-port="0"/>
		<edge from-layer="221" from-port="0" to-layer="222" to-port="1"/>
		<edge from-layer="222" from-port="2" to-layer="224" to-port="1"/>
		<edge from-layer="223" from-port="0" to-layer="224" to-port="2"/>
		<edge from-layer="224" from-port="3" to-layer="225" to-port="1"/>
		<edge from-layer="225" from-port="2" to-layer="249" to-port="0"/>
		<edge from-layer="226" from-port="0" to-layer="227" to-port="1"/>
		<edge from-layer="227" from-port="2" to-layer="233" to-port="0"/>
		<edge from-layer="228" from-port="0" to-layer="232" to-port="0"/>
		<edge from-layer="229" from-port="0" to-layer="232" to-port="1"/>
		<edge from-layer="230" from-port="0" to-layer="231" to-port="1"/>
		<edge from-layer="231" from-port="2" to-layer="232" to-port="2"/>
		<edge from-layer="232" from-port="3" to-layer="233" to-port="1"/>
		<edge from-layer="233" from-port="2" to-layer="235" to-port="0"/>
		<edge from-layer="234" from-port="0" to-layer="235" to-port="1"/>
		<edge from-layer="235" from-port="2" to-layer="248" to-port="0"/>
		<edge from-layer="236" from-port="0" to-layer="247" to-port="0"/>
		<edge from-layer="237" from-port="1" to-layer="241" to-port="0"/>
		<edge from-layer="238" from-port="0" to-layer="241" to-port="1"/>
		<edge from-layer="239" from-port="0" to-layer="241" to-port="2"/>
		<edge from-layer="240" from-port="0" to-layer="241" to-port="3"/>
		<edge from-layer="241" from-port="4" to-layer="243" to-port="0"/>
		<edge from-layer="242" from-port="0" to-layer="243" to-port="1"/>
		<edge from-layer="243" from-port="2" to-layer="245" to-port="0"/>
		<edge from-layer="244" from-port="0" to-layer="245" to-port="1"/>
		<edge from-layer="245" from-port="2" to-layer="247" to-port="1"/>
		<edge from-layer="246" from-port="0" to-layer="247" to-port="2"/>
		<edge from-layer="247" from-port="3" to-layer="248" to-port="1"/>
		<edge from-layer="248" from-port="2" to-layer="249" to-port="1"/>
		<edge from-layer="249" from-port="2" to-layer="252" to-port="0"/>
		<edge from-layer="250" from-port="0" to-layer="252" to-port="1"/>
		<edge from-layer="251" from-port="0" to-layer="252" to-port="2"/>
		<edge from-layer="252" from-port="10" to-layer="253" to-port="7"/>
		<edge from-layer="252" from-port="9" to-layer="253" to-port="6"/>
		<edge from-layer="252" from-port="8" to-layer="253" to-port="5"/>
		<edge from-layer="252" from-port="7" to-layer="253" to-port="4"/>
		<edge from-layer="252" from-port="6" to-layer="253" to-port="3"/>
		<edge from-layer="252" from-port="5" to-layer="253" to-port="2"/>
		<edge from-layer="252" from-port="4" to-layer="253" to-port="1"/>
		<edge from-layer="252" from-port="3" to-layer="253" to-port="0"/>
		<edge from-layer="253" from-port="8" to-layer="254" to-port="0"/>
		<edge from-layer="254" from-port="2" to-layer="256" to-port="0"/>
		<edge from-layer="254" from-port="2" to-layer="268" to-port="1"/>
		<edge from-layer="255" from-port="0" to-layer="256" to-port="1"/>
		<edge from-layer="256" from-port="2" to-layer="258" to-port="0"/>
		<edge from-layer="257" from-port="0" to-layer="258" to-port="1"/>
		<edge from-layer="258" from-port="2" to-layer="260" to-port="0"/>
		<edge from-layer="259" from-port="0" to-layer="260" to-port="1"/>
		<edge from-layer="260" from-port="2" to-layer="261" to-port="0"/>
		<edge from-layer="261" from-port="1" to-layer="263" to-port="0"/>
		<edge from-layer="262" from-port="0" to-layer="263" to-port="1"/>
		<edge from-layer="263" from-port="2" to-layer="265" to-port="0"/>
		<edge from-layer="264" from-port="0" to-layer="265" to-port="1"/>
		<edge from-layer="265" from-port="2" to-layer="267" to-port="0"/>
		<edge from-layer="266" from-port="0" to-layer="267" to-port="1"/>
		<edge from-layer="267" from-port="2" to-layer="268" to-port="0"/>
		<edge from-layer="268" from-port="2" to-layer="387" to-port="1"/>
		<edge from-layer="268" from-port="2" to-layer="370" to-port="0"/>
		<edge from-layer="268" from-port="2" to-layer="273" to-port="0"/>
		<edge from-layer="268" from-port="2" to-layer="360" to-port="0"/>
		<edge from-layer="268" from-port="2" to-layer="310" to-port="0"/>
		<edge from-layer="268" from-port="2" to-layer="300" to-port="0"/>
		<edge from-layer="268" from-port="2" to-layer="287" to-port="0"/>
		<edge from-layer="268" from-port="2" to-layer="270" to-port="0"/>
		<edge from-layer="269" from-port="0" to-layer="270" to-port="1"/>
		<edge from-layer="270" from-port="2" to-layer="283" to-port="0"/>
		<edge from-layer="271" from-port="0" to-layer="282" to-port="0"/>
		<edge from-layer="272" from-port="0" to-layer="282" to-port="1"/>
		<edge from-layer="273" from-port="1" to-layer="277" to-port="0"/>
		<edge from-layer="274" from-port="0" to-layer="277" to-port="1"/>
		<edge from-layer="275" from-port="0" to-layer="277" to-port="2"/>
		<edge from-layer="276" from-port="0" to-layer="277" to-port="3"/>
		<edge from-layer="277" from-port="4" to-layer="279" to-port="0"/>
		<edge from-layer="278" from-port="0" to-layer="279" to-port="1"/>
		<edge from-layer="279" from-port="2" to-layer="281" to-port="0"/>
		<edge from-layer="279" from-port="2" to-layer="364" to-port="0"/>
		<edge from-layer="279" from-port="2" to-layer="304" to-port="0"/>
		<edge from-layer="280" from-port="0" to-layer="281" to-port="1"/>
		<edge from-layer="281" from-port="2" to-layer="282" to-port="2"/>
		<edge from-layer="282" from-port="3" to-layer="283" to-port="1"/>
		<edge from-layer="283" from-port="2" to-layer="285" to-port="0"/>
		<edge from-layer="284" from-port="0" to-layer="285" to-port="1"/>
		<edge from-layer="285" from-port="2" to-layer="298" to-port="0"/>
		<edge from-layer="286" from-port="0" to-layer="297" to-port="0"/>
		<edge from-layer="287" from-port="1" to-layer="291" to-port="0"/>
		<edge from-layer="288" from-port="0" to-layer="291" to-port="1"/>
		<edge from-layer="289" from-port="0" to-layer="291" to-port="2"/>
		<edge from-layer="290" from-port="0" to-layer="291" to-port="3"/>
		<edge from-layer="291" from-port="4" to-layer="293" to-port="0"/>
		<edge from-layer="292" from-port="0" to-layer="293" to-port="1"/>
		<edge from-layer="293" from-port="2" to-layer="295" to-port="0"/>
		<edge from-layer="294" from-port="0" to-layer="295" to-port="1"/>
		<edge from-layer="295" from-port="2" to-layer="297" to-port="1"/>
		<edge from-layer="296" from-port="0" to-layer="297" to-port="2"/>
		<edge from-layer="297" from-port="3" to-layer="298" to-port="1"/>
		<edge from-layer="298" from-port="2" to-layer="326" to-port="0"/>
		<edge from-layer="299" from-port="0" to-layer="300" to-port="1"/>
		<edge from-layer="300" from-port="2" to-layer="306" to-port="0"/>
		<edge from-layer="301" from-port="0" to-layer="305" to-port="0"/>
		<edge from-layer="302" from-port="0" to-layer="305" to-port="1"/>
		<edge from-layer="303" from-port="0" to-layer="304" to-port="1"/>
		<edge from-layer="304" from-port="2" to-layer="305" to-port="2"/>
		<edge from-layer="305" from-port="3" to-layer="306" to-port="1"/>
		<edge from-layer="306" from-port="2" to-layer="308" to-port="0"/>
		<edge from-layer="307" from-port="0" to-layer="308" to-port="1"/>
		<edge from-layer="308" from-port="2" to-layer="321" to-port="0"/>
		<edge from-layer="309" from-port="0" to-layer="320" to-port="0"/>
		<edge from-layer="310" from-port="1" to-layer="314" to-port="0"/>
		<edge from-layer="311" from-port="0" to-layer="314" to-port="1"/>
		<edge from-layer="312" from-port="0" to-layer="314" to-port="2"/>
		<edge from-layer="313" from-port="0" to-layer="314" to-port="3"/>
		<edge from-layer="314" from-port="4" to-layer="316" to-port="0"/>
		<edge from-layer="315" from-port="0" to-layer="316" to-port="1"/>
		<edge from-layer="316" from-port="2" to-layer="318" to-port="0"/>
		<edge from-layer="317" from-port="0" to-layer="318" to-port="1"/>
		<edge from-layer="318" from-port="2" to-layer="320" to-port="1"/>
		<edge from-layer="319" from-port="0" to-layer="320" to-port="2"/>
		<edge from-layer="320" from-port="3" to-layer="321" to-port="1"/>
		<edge from-layer="321" from-port="2" to-layer="323" to-port="0"/>
		<edge from-layer="322" from-port="0" to-layer="323" to-port="1"/>
		<edge from-layer="323" from-port="2" to-layer="325" to-port="0"/>
		<edge from-layer="324" from-port="0" to-layer="325" to-port="1"/>
		<edge from-layer="325" from-port="2" to-layer="326" to-port="1"/>
		<edge from-layer="326" from-port="2" to-layer="346" to-port="0"/>
		<edge from-layer="326" from-port="2" to-layer="327" to-port="0"/>
		<edge from-layer="326" from-port="2" to-layer="334" to-port="0"/>
		<edge from-layer="327" from-port="1" to-layer="331" to-port="0"/>
		<edge from-layer="328" from-port="0" to-layer="331" to-port="1"/>
		<edge from-layer="329" from-port="0" to-layer="331" to-port="2"/>
		<edge from-layer="330" from-port="0" to-layer="331" to-port="3"/>
		<edge from-layer="331" from-port="4" to-layer="333" to-port="0"/>
		<edge from-layer="332" from-port="0" to-layer="333" to-port="1"/>
		<edge from-layer="333" from-port="2" to-layer="341" to-port="0"/>
		<edge from-layer="333" from-port="2" to-layer="353" to-port="0"/>
		<edge from-layer="334" from-port="1" to-layer="338" to-port="0"/>
		<edge from-layer="335" from-port="0" to-layer="338" to-port="1"/>
		<edge from-layer="336" from-port="0" to-layer="338" to-port="2"/>
		<edge from-layer="337" from-port="0" to-layer="338" to-port="3"/>
		<edge from-layer="338" from-port="4" to-layer="340" to-port="0"/>
		<edge from-layer="339" from-port="0" to-layer="340" to-port="1"/>
		<edge from-layer="340" from-port="2" to-layer="341" to-port="1"/>
		<edge from-layer="340" from-port="2" to-layer="355" to-port="0"/>
		<edge from-layer="341" from-port="2" to-layer="343" to-port="0"/>
		<edge from-layer="342" from-port="0" to-layer="343" to-port="1"/>
		<edge from-layer="343" from-port="2" to-layer="345" to-port="0"/>
		<edge from-layer="344" from-port="0" to-layer="345" to-port="1"/>
		<edge from-layer="345" from-port="2" to-layer="346" to-port="1"/>
		<edge from-layer="346" from-port="2" to-layer="350" to-port="0"/>
		<edge from-layer="346" from-port="2" to-layer="348" to-port="0"/>
		<edge from-layer="347" from-port="0" to-layer="348" to-port="1"/>
		<edge from-layer="348" from-port="2" to-layer="349" to-port="0"/>
		<edge from-layer="349" from-port="1" to-layer="351" to-port="0"/>
		<edge from-layer="350" from-port="1" to-layer="351" to-port="1"/>
		<edge from-layer="351" from-port="2" to-layer="358" to-port="0"/>
		<edge from-layer="352" from-port="0" to-layer="353" to-port="1"/>
		<edge from-layer="353" from-port="2" to-layer="357" to-port="0"/>
		<edge from-layer="354" from-port="0" to-layer="355" to-port="1"/>
		<edge from-layer="355" from-port="2" to-layer="357" to-port="1"/>
		<edge from-layer="356" from-port="0" to-layer="357" to-port="2"/>
		<edge from-layer="357" from-port="3" to-layer="358" to-port="1"/>
		<edge from-layer="358" from-port="2" to-layer="382" to-port="0"/>
		<edge from-layer="359" from-port="0" to-layer="360" to-port="1"/>
		<edge from-layer="360" from-port="2" to-layer="366" to-port="0"/>
		<edge from-layer="361" from-port="0" to-layer="365" to-port="0"/>
		<edge from-layer="362" from-port="0" to-layer="365" to-port="1"/>
		<edge from-layer="363" from-port="0" to-layer="364" to-port="1"/>
		<edge from-layer="364" from-port="2" to-layer="365" to-port="2"/>
		<edge from-layer="365" from-port="3" to-layer="366" to-port="1"/>
		<edge from-layer="366" from-port="2" to-layer="368" to-port="0"/>
		<edge from-layer="367" from-port="0" to-layer="368" to-port="1"/>
		<edge from-layer="368" from-port="2" to-layer="381" to-port="0"/>
		<edge from-layer="369" from-port="0" to-layer="380" to-port="0"/>
		<edge from-layer="370" from-port="1" to-layer="374" to-port="0"/>
		<edge from-layer="371" from-port="0" to-layer="374" to-port="1"/>
		<edge from-layer="372" from-port="0" to-layer="374" to-port="2"/>
		<edge from-layer="373" from-port="0" to-layer="374" to-port="3"/>
		<edge from-layer="374" from-port="4" to-layer="376" to-port="0"/>
		<edge from-layer="375" from-port="0" to-layer="376" to-port="1"/>
		<edge from-layer="376" from-port="2" to-layer="378" to-port="0"/>
		<edge from-layer="377" from-port="0" to-layer="378" to-port="1"/>
		<edge from-layer="378" from-port="2" to-layer="380" to-port="1"/>
		<edge from-layer="379" from-port="0" to-layer="380" to-port="2"/>
		<edge from-layer="380" from-port="3" to-layer="381" to-port="1"/>
		<edge from-layer="381" from-port="2" to-layer="382" to-port="1"/>
		<edge from-layer="382" from-port="2" to-layer="385" to-port="0"/>
		<edge from-layer="383" from-port="0" to-layer="385" to-port="1"/>
		<edge from-layer="384" from-port="0" to-layer="385" to-port="2"/>
		<edge from-layer="385" from-port="10" to-layer="386" to-port="7"/>
		<edge from-layer="385" from-port="9" to-layer="386" to-port="6"/>
		<edge from-layer="385" from-port="8" to-layer="386" to-port="5"/>
		<edge from-layer="385" from-port="7" to-layer="386" to-port="4"/>
		<edge from-layer="385" from-port="5" to-layer="386" to-port="2"/>
		<edge from-layer="385" from-port="4" to-layer="386" to-port="1"/>
		<edge from-layer="385" from-port="3" to-layer="386" to-port="0"/>
		<edge from-layer="385" from-port="6" to-layer="386" to-port="3"/>
		<edge from-layer="386" from-port="8" to-layer="387" to-port="0"/>
		<edge from-layer="387" from-port="2" to-layer="401" to-port="1"/>
		<edge from-layer="387" from-port="2" to-layer="389" to-port="0"/>
		<edge from-layer="388" from-port="0" to-layer="389" to-port="1"/>
		<edge from-layer="389" from-port="2" to-layer="391" to-port="0"/>
		<edge from-layer="390" from-port="0" to-layer="391" to-port="1"/>
		<edge from-layer="391" from-port="2" to-layer="393" to-port="0"/>
		<edge from-layer="392" from-port="0" to-layer="393" to-port="1"/>
		<edge from-layer="393" from-port="2" to-layer="394" to-port="0"/>
		<edge from-layer="394" from-port="1" to-layer="396" to-port="0"/>
		<edge from-layer="395" from-port="0" to-layer="396" to-port="1"/>
		<edge from-layer="396" from-port="2" to-layer="398" to-port="0"/>
		<edge from-layer="397" from-port="0" to-layer="398" to-port="1"/>
		<edge from-layer="398" from-port="2" to-layer="400" to-port="0"/>
		<edge from-layer="399" from-port="0" to-layer="400" to-port="1"/>
		<edge from-layer="400" from-port="2" to-layer="401" to-port="0"/>
		<edge from-layer="401" from-port="2" to-layer="520" to-port="1"/>
		<edge from-layer="401" from-port="2" to-layer="420" to-port="0"/>
		<edge from-layer="401" from-port="2" to-layer="433" to-port="0"/>
		<edge from-layer="401" from-port="2" to-layer="443" to-port="0"/>
		<edge from-layer="401" from-port="2" to-layer="493" to-port="0"/>
		<edge from-layer="401" from-port="2" to-layer="503" to-port="0"/>
		<edge from-layer="401" from-port="2" to-layer="403" to-port="0"/>
		<edge from-layer="401" from-port="2" to-layer="406" to-port="0"/>
		<edge from-layer="402" from-port="0" to-layer="403" to-port="1"/>
		<edge from-layer="403" from-port="2" to-layer="416" to-port="0"/>
		<edge from-layer="404" from-port="0" to-layer="415" to-port="0"/>
		<edge from-layer="405" from-port="0" to-layer="415" to-port="1"/>
		<edge from-layer="406" from-port="1" to-layer="410" to-port="0"/>
		<edge from-layer="407" from-port="0" to-layer="410" to-port="1"/>
		<edge from-layer="408" from-port="0" to-layer="410" to-port="2"/>
		<edge from-layer="409" from-port="0" to-layer="410" to-port="3"/>
		<edge from-layer="410" from-port="4" to-layer="412" to-port="0"/>
		<edge from-layer="411" from-port="0" to-layer="412" to-port="1"/>
		<edge from-layer="412" from-port="2" to-layer="497" to-port="0"/>
		<edge from-layer="412" from-port="2" to-layer="414" to-port="0"/>
		<edge from-layer="412" from-port="2" to-layer="437" to-port="0"/>
		<edge from-layer="413" from-port="0" to-layer="414" to-port="1"/>
		<edge from-layer="414" from-port="2" to-layer="415" to-port="2"/>
		<edge from-layer="415" from-port="3" to-layer="416" to-port="1"/>
		<edge from-layer="416" from-port="2" to-layer="418" to-port="0"/>
		<edge from-layer="417" from-port="0" to-layer="418" to-port="1"/>
		<edge from-layer="418" from-port="2" to-layer="431" to-port="0"/>
		<edge from-layer="419" from-port="0" to-layer="430" to-port="0"/>
		<edge from-layer="420" from-port="1" to-layer="424" to-port="0"/>
		<edge from-layer="421" from-port="0" to-layer="424" to-port="1"/>
		<edge from-layer="422" from-port="0" to-layer="424" to-port="2"/>
		<edge from-layer="423" from-port="0" to-layer="424" to-port="3"/>
		<edge from-layer="424" from-port="4" to-layer="426" to-port="0"/>
		<edge from-layer="425" from-port="0" to-layer="426" to-port="1"/>
		<edge from-layer="426" from-port="2" to-layer="428" to-port="0"/>
		<edge from-layer="427" from-port="0" to-layer="428" to-port="1"/>
		<edge from-layer="428" from-port="2" to-layer="430" to-port="1"/>
		<edge from-layer="429" from-port="0" to-layer="430" to-port="2"/>
		<edge from-layer="430" from-port="3" to-layer="431" to-port="1"/>
		<edge from-layer="431" from-port="2" to-layer="459" to-port="0"/>
		<edge from-layer="432" from-port="0" to-layer="433" to-port="1"/>
		<edge from-layer="433" from-port="2" to-layer="439" to-port="0"/>
		<edge from-layer="434" from-port="0" to-layer="438" to-port="0"/>
		<edge from-layer="435" from-port="0" to-layer="438" to-port="1"/>
		<edge from-layer="436" from-port="0" to-layer="437" to-port="1"/>
		<edge from-layer="437" from-port="2" to-layer="438" to-port="2"/>
		<edge from-layer="438" from-port="3" to-layer="439" to-port="1"/>
		<edge from-layer="439" from-port="2" to-layer="441" to-port="0"/>
		<edge from-layer="440" from-port="0" to-layer="441" to-port="1"/>
		<edge from-layer="441" from-port="2" to-layer="454" to-port="0"/>
		<edge from-layer="442" from-port="0" to-layer="453" to-port="0"/>
		<edge from-layer="443" from-port="1" to-layer="447" to-port="0"/>
		<edge from-layer="444" from-port="0" to-layer="447" to-port="1"/>
		<edge from-layer="445" from-port="0" to-layer="447" to-port="2"/>
		<edge from-layer="446" from-port="0" to-layer="447" to-port="3"/>
		<edge from-layer="447" from-port="4" to-layer="449" to-port="0"/>
		<edge from-layer="448" from-port="0" to-layer="449" to-port="1"/>
		<edge from-layer="449" from-port="2" to-layer="451" to-port="0"/>
		<edge from-layer="450" from-port="0" to-layer="451" to-port="1"/>
		<edge from-layer="451" from-port="2" to-layer="453" to-port="1"/>
		<edge from-layer="452" from-port="0" to-layer="453" to-port="2"/>
		<edge from-layer="453" from-port="3" to-layer="454" to-port="1"/>
		<edge from-layer="454" from-port="2" to-layer="456" to-port="0"/>
		<edge from-layer="455" from-port="0" to-layer="456" to-port="1"/>
		<edge from-layer="456" from-port="2" to-layer="458" to-port="0"/>
		<edge from-layer="457" from-port="0" to-layer="458" to-port="1"/>
		<edge from-layer="458" from-port="2" to-layer="459" to-port="1"/>
		<edge from-layer="459" from-port="2" to-layer="460" to-port="0"/>
		<edge from-layer="459" from-port="2" to-layer="467" to-port="0"/>
		<edge from-layer="459" from-port="2" to-layer="479" to-port="0"/>
		<edge from-layer="460" from-port="1" to-layer="464" to-port="0"/>
		<edge from-layer="461" from-port="0" to-layer="464" to-port="1"/>
		<edge from-layer="462" from-port="0" to-layer="464" to-port="2"/>
		<edge from-layer="463" from-port="0" to-layer="464" to-port="3"/>
		<edge from-layer="464" from-port="4" to-layer="466" to-port="0"/>
		<edge from-layer="465" from-port="0" to-layer="466" to-port="1"/>
		<edge from-layer="466" from-port="2" to-layer="474" to-port="0"/>
		<edge from-layer="466" from-port="2" to-layer="486" to-port="0"/>
		<edge from-layer="467" from-port="1" to-layer="471" to-port="0"/>
		<edge from-layer="468" from-port="0" to-layer="471" to-port="1"/>
		<edge from-layer="469" from-port="0" to-layer="471" to-port="2"/>
		<edge from-layer="470" from-port="0" to-layer="471" to-port="3"/>
		<edge from-layer="471" from-port="4" to-layer="473" to-port="0"/>
		<edge from-layer="472" from-port="0" to-layer="473" to-port="1"/>
		<edge from-layer="473" from-port="2" to-layer="474" to-port="1"/>
		<edge from-layer="473" from-port="2" to-layer="488" to-port="0"/>
		<edge from-layer="474" from-port="2" to-layer="476" to-port="0"/>
		<edge from-layer="475" from-port="0" to-layer="476" to-port="1"/>
		<edge from-layer="476" from-port="2" to-layer="478" to-port="0"/>
		<edge from-layer="477" from-port="0" to-layer="478" to-port="1"/>
		<edge from-layer="478" from-port="2" to-layer="479" to-port="1"/>
		<edge from-layer="479" from-port="2" to-layer="483" to-port="0"/>
		<edge from-layer="479" from-port="2" to-layer="481" to-port="0"/>
		<edge from-layer="480" from-port="0" to-layer="481" to-port="1"/>
		<edge from-layer="481" from-port="2" to-layer="482" to-port="0"/>
		<edge from-layer="482" from-port="1" to-layer="484" to-port="0"/>
		<edge from-layer="483" from-port="1" to-layer="484" to-port="1"/>
		<edge from-layer="484" from-port="2" to-layer="491" to-port="0"/>
		<edge from-layer="485" from-port="0" to-layer="486" to-port="1"/>
		<edge from-layer="486" from-port="2" to-layer="490" to-port="0"/>
		<edge from-layer="487" from-port="0" to-layer="488" to-port="1"/>
		<edge from-layer="488" from-port="2" to-layer="490" to-port="1"/>
		<edge from-layer="489" from-port="0" to-layer="490" to-port="2"/>
		<edge from-layer="490" from-port="3" to-layer="491" to-port="1"/>
		<edge from-layer="491" from-port="2" to-layer="515" to-port="0"/>
		<edge from-layer="492" from-port="0" to-layer="493" to-port="1"/>
		<edge from-layer="493" from-port="2" to-layer="499" to-port="0"/>
		<edge from-layer="494" from-port="0" to-layer="498" to-port="0"/>
		<edge from-layer="495" from-port="0" to-layer="498" to-port="1"/>
		<edge from-layer="496" from-port="0" to-layer="497" to-port="1"/>
		<edge from-layer="497" from-port="2" to-layer="498" to-port="2"/>
		<edge from-layer="498" from-port="3" to-layer="499" to-port="1"/>
		<edge from-layer="499" from-port="2" to-layer="501" to-port="0"/>
		<edge from-layer="500" from-port="0" to-layer="501" to-port="1"/>
		<edge from-layer="501" from-port="2" to-layer="514" to-port="0"/>
		<edge from-layer="502" from-port="0" to-layer="513" to-port="0"/>
		<edge from-layer="503" from-port="1" to-layer="507" to-port="0"/>
		<edge from-layer="504" from-port="0" to-layer="507" to-port="1"/>
		<edge from-layer="505" from-port="0" to-layer="507" to-port="2"/>
		<edge from-layer="506" from-port="0" to-layer="507" to-port="3"/>
		<edge from-layer="507" from-port="4" to-layer="509" to-port="0"/>
		<edge from-layer="508" from-port="0" to-layer="509" to-port="1"/>
		<edge from-layer="509" from-port="2" to-layer="511" to-port="0"/>
		<edge from-layer="510" from-port="0" to-layer="511" to-port="1"/>
		<edge from-layer="511" from-port="2" to-layer="513" to-port="1"/>
		<edge from-layer="512" from-port="0" to-layer="513" to-port="2"/>
		<edge from-layer="513" from-port="3" to-layer="514" to-port="1"/>
		<edge from-layer="514" from-port="2" to-layer="515" to-port="1"/>
		<edge from-layer="515" from-port="2" to-layer="518" to-port="0"/>
		<edge from-layer="516" from-port="0" to-layer="518" to-port="1"/>
		<edge from-layer="517" from-port="0" to-layer="518" to-port="2"/>
		<edge from-layer="518" from-port="5" to-layer="519" to-port="2"/>
		<edge from-layer="518" from-port="4" to-layer="519" to-port="1"/>
		<edge from-layer="518" from-port="3" to-layer="519" to-port="0"/>
		<edge from-layer="518" from-port="10" to-layer="519" to-port="7"/>
		<edge from-layer="518" from-port="9" to-layer="519" to-port="6"/>
		<edge from-layer="518" from-port="8" to-layer="519" to-port="5"/>
		<edge from-layer="518" from-port="7" to-layer="519" to-port="4"/>
		<edge from-layer="518" from-port="6" to-layer="519" to-port="3"/>
		<edge from-layer="519" from-port="8" to-layer="520" to-port="0"/>
		<edge from-layer="520" from-port="2" to-layer="522" to-port="0"/>
		<edge from-layer="520" from-port="2" to-layer="534" to-port="1"/>
		<edge from-layer="521" from-port="0" to-layer="522" to-port="1"/>
		<edge from-layer="522" from-port="2" to-layer="524" to-port="0"/>
		<edge from-layer="523" from-port="0" to-layer="524" to-port="1"/>
		<edge from-layer="524" from-port="2" to-layer="526" to-port="0"/>
		<edge from-layer="525" from-port="0" to-layer="526" to-port="1"/>
		<edge from-layer="526" from-port="2" to-layer="527" to-port="0"/>
		<edge from-layer="527" from-port="1" to-layer="529" to-port="0"/>
		<edge from-layer="528" from-port="0" to-layer="529" to-port="1"/>
		<edge from-layer="529" from-port="2" to-layer="531" to-port="0"/>
		<edge from-layer="530" from-port="0" to-layer="531" to-port="1"/>
		<edge from-layer="531" from-port="2" to-layer="533" to-port="0"/>
		<edge from-layer="532" from-port="0" to-layer="533" to-port="1"/>
		<edge from-layer="533" from-port="2" to-layer="534" to-port="0"/>
		<edge from-layer="534" from-port="2" to-layer="536" to-port="0"/>
		<edge from-layer="535" from-port="0" to-layer="536" to-port="1"/>
		<edge from-layer="536" from-port="2" to-layer="538" to-port="0"/>
		<edge from-layer="537" from-port="0" to-layer="538" to-port="1"/>
		<edge from-layer="538" from-port="2" to-layer="540" to-port="0"/>
		<edge from-layer="539" from-port="0" to-layer="540" to-port="1"/>
		<edge from-layer="540" from-port="2" to-layer="541" to-port="0"/>
	</edges>
	<meta_data>
		<MO_version value="2021.4.0-3827-c5b65f2cb1d-releases/2021/4"/>
		<cli_parameters>
			<caffe_parser_path value="DIR"/>
			<data_type value="FP32"/>
			<disable_nhwc_to_nchw value="False"/>
			<disable_omitting_optional value="False"/>
			<disable_resnet_optimization value="False"/>
			<disable_weights_compression value="False"/>
			<enable_concat_optimization value="False"/>
			<enable_flattening_nested_params value="False"/>
			<enable_ssd_gluoncv value="False"/>
			<extensions value="DIR"/>
			<framework value="onnx"/>
			<freeze_placeholder_with_value value="{}"/>
			<generate_deprecated_IR_V7 value="False"/>
			<input value="0"/>
			<input_model value="DIR/driver_action_recognition_adas_0002_decoder.onnx"/>
			<input_model_is_text value="False"/>
			<input_shape value="[1,16,512]"/>
			<k value="DIR/CustomLayersMapping.xml"/>
			<keep_shape_ops value="True"/>
			<legacy_ir_generation value="False"/>
			<legacy_mxnet_model value="False"/>
			<log_level value="ERROR"/>
			<mean_scale_values value="{}"/>
			<mean_values value="()"/>
			<model_name value="driver-action-recognition-adas-0002-decoder"/>
			<output value="['804']"/>
			<output_dir value="DIR"/>
			<placeholder_data_types value="{}"/>
			<placeholder_shapes value="{'0': array([  1,  16, 512])}"/>
			<progress value="False"/>
			<remove_memory value="False"/>
			<remove_output_softmax value="False"/>
			<reverse_input_channels value="False"/>
			<save_params_from_nd value="False"/>
			<scale_values value="()"/>
			<silent value="False"/>
			<static_shape value="False"/>
			<stream_output value="False"/>
			<transform value=""/>
			<unset unset_cli_parameters="batch, counts, disable_fusing, disable_gfusing, finegrain_fusing, input_checkpoint, input_meta_graph, input_proto, input_symbol, mean_file, mean_file_offsets, move_to_preprocess, nd_prefix_name, pretrained_model_name, saved_model_dir, saved_model_tags, scale, tensorboard_logdir, tensorflow_custom_layer_libraries, tensorflow_custom_operations_config_update, tensorflow_object_detection_api_pipeline_config, tensorflow_use_custom_operations_config, transformations_config"/>
		</cli_parameters>
	</meta_data>
</net>
